{
  "format": "layers-model",
  "generatedBy": "keras v2.11.0",
  "convertedBy": "TensorFlow.js Converter v4.2.0",
  "modelTopology": {
    "keras_version": "2.11.0",
    "backend": "tensorflow",
    "model_config": {
      "class_name": "Functional",
      "config": {
        "name": "model_4",
        "layers": [
          {
            "class_name": "InputLayer",
            "config": {
              "batch_input_shape": [null, 171, 300, 1],
              "dtype": "float32",
              "sparse": false,
              "ragged": false,
              "name": "input_4"
            },
            "name": "input_4",
            "inbound_nodes": []
          },
          {
            "class_name": "Conv2D",
            "config": {
              "name": "conv2d_3",
              "trainable": true,
              "dtype": "float32",
              "filters": 256,
              "kernel_size": [1, 3],
              "strides": [1, 2],
              "padding": "same",
              "data_format": "channels_last",
              "dilation_rate": [1, 1],
              "groups": 1,
              "activation": "linear",
              "use_bias": true,
              "kernel_initializer": {
                "class_name": "GlorotUniform",
                "config": { "seed": null }
              },
              "bias_initializer": { "class_name": "Zeros", "config": {} },
              "kernel_regularizer": {
                "class_name": "L1L2",
                "config": { "l2": 0.009999999776482582 }
              },
              "bias_regularizer": null,
              "activity_regularizer": null,
              "kernel_constraint": null,
              "bias_constraint": null
            },
            "name": "conv2d_3",
            "inbound_nodes": [[["input_4", 0, 0, {}]]]
          },
          {
            "class_name": "BatchNormalization",
            "config": {
              "name": "batch_normalization_3",
              "trainable": true,
              "dtype": "float32",
              "axis": [3],
              "momentum": 0.99,
              "epsilon": 0.001,
              "center": true,
              "scale": true,
              "beta_initializer": { "class_name": "Zeros", "config": {} },
              "gamma_initializer": { "class_name": "Ones", "config": {} },
              "moving_mean_initializer": {
                "class_name": "Zeros",
                "config": {}
              },
              "moving_variance_initializer": {
                "class_name": "Ones",
                "config": {}
              },
              "beta_regularizer": null,
              "gamma_regularizer": null,
              "beta_constraint": null,
              "gamma_constraint": null
            },
            "name": "batch_normalization_3",
            "inbound_nodes": [[["conv2d_3", 0, 0, {}]]]
          },
          {
            "class_name": "ReLU",
            "config": {
              "name": "re_lu_3",
              "trainable": true,
              "dtype": "float32",
              "max_value": null,
              "negative_slope": 0.0,
              "threshold": 0.0
            },
            "name": "re_lu_3",
            "inbound_nodes": [[["batch_normalization_3", 0, 0, {}]]]
          },
          {
            "class_name": "Functional",
            "config": {
              "name": "model",
              "layers": [
                {
                  "class_name": "InputLayer",
                  "config": {
                    "batch_input_shape": [null, 171, 150, 256],
                    "dtype": "float32",
                    "sparse": false,
                    "ragged": false,
                    "name": "input_5"
                  },
                  "name": "input_5",
                  "inbound_nodes": []
                },
                {
                  "class_name": "Conv2D",
                  "config": {
                    "name": "conv2d_5",
                    "trainable": true,
                    "dtype": "float32",
                    "filters": 256,
                    "kernel_size": [1, 3],
                    "strides": [1, 2],
                    "padding": "same",
                    "data_format": "channels_last",
                    "dilation_rate": [1, 1],
                    "groups": 1,
                    "activation": "linear",
                    "use_bias": true,
                    "kernel_initializer": {
                      "class_name": "GlorotUniform",
                      "config": { "seed": null }
                    },
                    "bias_initializer": { "class_name": "Zeros", "config": {} },
                    "kernel_regularizer": {
                      "class_name": "L1L2",
                      "config": { "l2": 0.009999999776482582 }
                    },
                    "bias_regularizer": null,
                    "activity_regularizer": null,
                    "kernel_constraint": null,
                    "bias_constraint": null
                  },
                  "name": "conv2d_5",
                  "inbound_nodes": [[["input_5", 0, 0, {}]]]
                },
                {
                  "class_name": "BatchNormalization",
                  "config": {
                    "name": "batch_normalization_5",
                    "trainable": true,
                    "dtype": "float32",
                    "axis": [3],
                    "momentum": 0.99,
                    "epsilon": 0.001,
                    "center": true,
                    "scale": true,
                    "beta_initializer": { "class_name": "Zeros", "config": {} },
                    "gamma_initializer": { "class_name": "Ones", "config": {} },
                    "moving_mean_initializer": {
                      "class_name": "Zeros",
                      "config": {}
                    },
                    "moving_variance_initializer": {
                      "class_name": "Ones",
                      "config": {}
                    },
                    "beta_regularizer": null,
                    "gamma_regularizer": null,
                    "beta_constraint": null,
                    "gamma_constraint": null
                  },
                  "name": "batch_normalization_5",
                  "inbound_nodes": [[["conv2d_5", 0, 0, {}]]]
                },
                {
                  "class_name": "ReLU",
                  "config": {
                    "name": "re_lu_4",
                    "trainable": true,
                    "dtype": "float32",
                    "max_value": null,
                    "negative_slope": 0.0,
                    "threshold": 0.0
                  },
                  "name": "re_lu_4",
                  "inbound_nodes": [[["batch_normalization_5", 0, 0, {}]]]
                },
                {
                  "class_name": "Conv2D",
                  "config": {
                    "name": "conv2d_6",
                    "trainable": true,
                    "dtype": "float32",
                    "filters": 256,
                    "kernel_size": [1, 3],
                    "strides": [1, 1],
                    "padding": "same",
                    "data_format": "channels_last",
                    "dilation_rate": [1, 1],
                    "groups": 1,
                    "activation": "linear",
                    "use_bias": true,
                    "kernel_initializer": {
                      "class_name": "GlorotUniform",
                      "config": { "seed": null }
                    },
                    "bias_initializer": { "class_name": "Zeros", "config": {} },
                    "kernel_regularizer": null,
                    "bias_regularizer": null,
                    "activity_regularizer": null,
                    "kernel_constraint": null,
                    "bias_constraint": null
                  },
                  "name": "conv2d_6",
                  "inbound_nodes": [[["re_lu_4", 0, 0, {}]]]
                },
                {
                  "class_name": "BatchNormalization",
                  "config": {
                    "name": "batch_normalization_6",
                    "trainable": true,
                    "dtype": "float32",
                    "axis": [3],
                    "momentum": 0.99,
                    "epsilon": 0.001,
                    "center": true,
                    "scale": true,
                    "beta_initializer": { "class_name": "Zeros", "config": {} },
                    "gamma_initializer": { "class_name": "Ones", "config": {} },
                    "moving_mean_initializer": {
                      "class_name": "Zeros",
                      "config": {}
                    },
                    "moving_variance_initializer": {
                      "class_name": "Ones",
                      "config": {}
                    },
                    "beta_regularizer": null,
                    "gamma_regularizer": null,
                    "beta_constraint": null,
                    "gamma_constraint": null
                  },
                  "name": "batch_normalization_6",
                  "inbound_nodes": [[["conv2d_6", 0, 0, {}]]]
                },
                {
                  "class_name": "ReLU",
                  "config": {
                    "name": "re_lu_5",
                    "trainable": true,
                    "dtype": "float32",
                    "max_value": null,
                    "negative_slope": 0.0,
                    "threshold": 0.0
                  },
                  "name": "re_lu_5",
                  "inbound_nodes": [[["batch_normalization_6", 0, 0, {}]]]
                },
                {
                  "class_name": "Conv2D",
                  "config": {
                    "name": "conv2d_7",
                    "trainable": true,
                    "dtype": "float32",
                    "filters": 256,
                    "kernel_size": [1, 3],
                    "strides": [1, 1],
                    "padding": "same",
                    "data_format": "channels_last",
                    "dilation_rate": [1, 1],
                    "groups": 1,
                    "activation": "linear",
                    "use_bias": true,
                    "kernel_initializer": {
                      "class_name": "GlorotUniform",
                      "config": { "seed": null }
                    },
                    "bias_initializer": { "class_name": "Zeros", "config": {} },
                    "kernel_regularizer": null,
                    "bias_regularizer": null,
                    "activity_regularizer": null,
                    "kernel_constraint": null,
                    "bias_constraint": null
                  },
                  "name": "conv2d_7",
                  "inbound_nodes": [[["re_lu_5", 0, 0, {}]]]
                },
                {
                  "class_name": "BatchNormalization",
                  "config": {
                    "name": "batch_normalization_7",
                    "trainable": true,
                    "dtype": "float32",
                    "axis": [3],
                    "momentum": 0.99,
                    "epsilon": 0.001,
                    "center": true,
                    "scale": true,
                    "beta_initializer": { "class_name": "Zeros", "config": {} },
                    "gamma_initializer": { "class_name": "Ones", "config": {} },
                    "moving_mean_initializer": {
                      "class_name": "Zeros",
                      "config": {}
                    },
                    "moving_variance_initializer": {
                      "class_name": "Ones",
                      "config": {}
                    },
                    "beta_regularizer": null,
                    "gamma_regularizer": null,
                    "beta_constraint": null,
                    "gamma_constraint": null
                  },
                  "name": "batch_normalization_7",
                  "inbound_nodes": [[["conv2d_7", 0, 0, {}]]]
                },
                {
                  "class_name": "Conv2D",
                  "config": {
                    "name": "conv2d_4",
                    "trainable": true,
                    "dtype": "float32",
                    "filters": 256,
                    "kernel_size": [1, 3],
                    "strides": [1, 2],
                    "padding": "same",
                    "data_format": "channels_last",
                    "dilation_rate": [1, 1],
                    "groups": 1,
                    "activation": "linear",
                    "use_bias": true,
                    "kernel_initializer": {
                      "class_name": "GlorotUniform",
                      "config": { "seed": null }
                    },
                    "bias_initializer": { "class_name": "Zeros", "config": {} },
                    "kernel_regularizer": null,
                    "bias_regularizer": null,
                    "activity_regularizer": null,
                    "kernel_constraint": null,
                    "bias_constraint": null
                  },
                  "name": "conv2d_4",
                  "inbound_nodes": [[["input_5", 0, 0, {}]]]
                },
                {
                  "class_name": "ReLU",
                  "config": {
                    "name": "re_lu_6",
                    "trainable": true,
                    "dtype": "float32",
                    "max_value": null,
                    "negative_slope": 0.0,
                    "threshold": 0.0
                  },
                  "name": "re_lu_6",
                  "inbound_nodes": [[["batch_normalization_7", 0, 0, {}]]]
                },
                {
                  "class_name": "BatchNormalization",
                  "config": {
                    "name": "batch_normalization_4",
                    "trainable": true,
                    "dtype": "float32",
                    "axis": [3],
                    "momentum": 0.99,
                    "epsilon": 0.001,
                    "center": true,
                    "scale": true,
                    "beta_initializer": { "class_name": "Zeros", "config": {} },
                    "gamma_initializer": { "class_name": "Ones", "config": {} },
                    "moving_mean_initializer": {
                      "class_name": "Zeros",
                      "config": {}
                    },
                    "moving_variance_initializer": {
                      "class_name": "Ones",
                      "config": {}
                    },
                    "beta_regularizer": null,
                    "gamma_regularizer": null,
                    "beta_constraint": null,
                    "gamma_constraint": null
                  },
                  "name": "batch_normalization_4",
                  "inbound_nodes": [[["conv2d_4", 0, 0, {}]]]
                },
                {
                  "class_name": "Dropout",
                  "config": {
                    "name": "dropout",
                    "trainable": true,
                    "dtype": "float32",
                    "rate": 0.2,
                    "noise_shape": null,
                    "seed": null
                  },
                  "name": "dropout",
                  "inbound_nodes": [[["re_lu_6", 0, 0, {}]]]
                },
                {
                  "class_name": "Add",
                  "config": {
                    "name": "add",
                    "trainable": true,
                    "dtype": "float32"
                  },
                  "name": "add",
                  "inbound_nodes": [
                    [
                      ["batch_normalization_4", 0, 0, {}],
                      ["dropout", 0, 0, {}]
                    ]
                  ]
                }
              ],
              "input_layers": [["input_5", 0, 0]],
              "output_layers": [["add", 0, 0]]
            },
            "name": "model",
            "inbound_nodes": [[["re_lu_3", 0, 0, {}]]]
          },
          {
            "class_name": "Functional",
            "config": {
              "name": "model_1",
              "layers": [
                {
                  "class_name": "InputLayer",
                  "config": {
                    "batch_input_shape": [null, 171, 75, 256],
                    "dtype": "float32",
                    "sparse": false,
                    "ragged": false,
                    "name": "input_6"
                  },
                  "name": "input_6",
                  "inbound_nodes": []
                },
                {
                  "class_name": "Conv2D",
                  "config": {
                    "name": "conv2d_9",
                    "trainable": true,
                    "dtype": "float32",
                    "filters": 256,
                    "kernel_size": [1, 3],
                    "strides": [1, 2],
                    "padding": "same",
                    "data_format": "channels_last",
                    "dilation_rate": [1, 1],
                    "groups": 1,
                    "activation": "linear",
                    "use_bias": true,
                    "kernel_initializer": {
                      "class_name": "GlorotUniform",
                      "config": { "seed": null }
                    },
                    "bias_initializer": { "class_name": "Zeros", "config": {} },
                    "kernel_regularizer": {
                      "class_name": "L1L2",
                      "config": { "l2": 0.009999999776482582 }
                    },
                    "bias_regularizer": null,
                    "activity_regularizer": null,
                    "kernel_constraint": null,
                    "bias_constraint": null
                  },
                  "name": "conv2d_9",
                  "inbound_nodes": [[["input_6", 0, 0, {}]]]
                },
                {
                  "class_name": "BatchNormalization",
                  "config": {
                    "name": "batch_normalization_9",
                    "trainable": true,
                    "dtype": "float32",
                    "axis": [3],
                    "momentum": 0.99,
                    "epsilon": 0.001,
                    "center": true,
                    "scale": true,
                    "beta_initializer": { "class_name": "Zeros", "config": {} },
                    "gamma_initializer": { "class_name": "Ones", "config": {} },
                    "moving_mean_initializer": {
                      "class_name": "Zeros",
                      "config": {}
                    },
                    "moving_variance_initializer": {
                      "class_name": "Ones",
                      "config": {}
                    },
                    "beta_regularizer": null,
                    "gamma_regularizer": null,
                    "beta_constraint": null,
                    "gamma_constraint": null
                  },
                  "name": "batch_normalization_9",
                  "inbound_nodes": [[["conv2d_9", 0, 0, {}]]]
                },
                {
                  "class_name": "ReLU",
                  "config": {
                    "name": "re_lu_7",
                    "trainable": true,
                    "dtype": "float32",
                    "max_value": null,
                    "negative_slope": 0.0,
                    "threshold": 0.0
                  },
                  "name": "re_lu_7",
                  "inbound_nodes": [[["batch_normalization_9", 0, 0, {}]]]
                },
                {
                  "class_name": "Conv2D",
                  "config": {
                    "name": "conv2d_10",
                    "trainable": true,
                    "dtype": "float32",
                    "filters": 256,
                    "kernel_size": [1, 3],
                    "strides": [1, 1],
                    "padding": "same",
                    "data_format": "channels_last",
                    "dilation_rate": [1, 1],
                    "groups": 1,
                    "activation": "linear",
                    "use_bias": true,
                    "kernel_initializer": {
                      "class_name": "GlorotUniform",
                      "config": { "seed": null }
                    },
                    "bias_initializer": { "class_name": "Zeros", "config": {} },
                    "kernel_regularizer": null,
                    "bias_regularizer": null,
                    "activity_regularizer": null,
                    "kernel_constraint": null,
                    "bias_constraint": null
                  },
                  "name": "conv2d_10",
                  "inbound_nodes": [[["re_lu_7", 0, 0, {}]]]
                },
                {
                  "class_name": "BatchNormalization",
                  "config": {
                    "name": "batch_normalization_10",
                    "trainable": true,
                    "dtype": "float32",
                    "axis": [3],
                    "momentum": 0.99,
                    "epsilon": 0.001,
                    "center": true,
                    "scale": true,
                    "beta_initializer": { "class_name": "Zeros", "config": {} },
                    "gamma_initializer": { "class_name": "Ones", "config": {} },
                    "moving_mean_initializer": {
                      "class_name": "Zeros",
                      "config": {}
                    },
                    "moving_variance_initializer": {
                      "class_name": "Ones",
                      "config": {}
                    },
                    "beta_regularizer": null,
                    "gamma_regularizer": null,
                    "beta_constraint": null,
                    "gamma_constraint": null
                  },
                  "name": "batch_normalization_10",
                  "inbound_nodes": [[["conv2d_10", 0, 0, {}]]]
                },
                {
                  "class_name": "ReLU",
                  "config": {
                    "name": "re_lu_8",
                    "trainable": true,
                    "dtype": "float32",
                    "max_value": null,
                    "negative_slope": 0.0,
                    "threshold": 0.0
                  },
                  "name": "re_lu_8",
                  "inbound_nodes": [[["batch_normalization_10", 0, 0, {}]]]
                },
                {
                  "class_name": "Conv2D",
                  "config": {
                    "name": "conv2d_11",
                    "trainable": true,
                    "dtype": "float32",
                    "filters": 256,
                    "kernel_size": [1, 3],
                    "strides": [1, 1],
                    "padding": "same",
                    "data_format": "channels_last",
                    "dilation_rate": [1, 1],
                    "groups": 1,
                    "activation": "linear",
                    "use_bias": true,
                    "kernel_initializer": {
                      "class_name": "GlorotUniform",
                      "config": { "seed": null }
                    },
                    "bias_initializer": { "class_name": "Zeros", "config": {} },
                    "kernel_regularizer": null,
                    "bias_regularizer": null,
                    "activity_regularizer": null,
                    "kernel_constraint": null,
                    "bias_constraint": null
                  },
                  "name": "conv2d_11",
                  "inbound_nodes": [[["re_lu_8", 0, 0, {}]]]
                },
                {
                  "class_name": "BatchNormalization",
                  "config": {
                    "name": "batch_normalization_11",
                    "trainable": true,
                    "dtype": "float32",
                    "axis": [3],
                    "momentum": 0.99,
                    "epsilon": 0.001,
                    "center": true,
                    "scale": true,
                    "beta_initializer": { "class_name": "Zeros", "config": {} },
                    "gamma_initializer": { "class_name": "Ones", "config": {} },
                    "moving_mean_initializer": {
                      "class_name": "Zeros",
                      "config": {}
                    },
                    "moving_variance_initializer": {
                      "class_name": "Ones",
                      "config": {}
                    },
                    "beta_regularizer": null,
                    "gamma_regularizer": null,
                    "beta_constraint": null,
                    "gamma_constraint": null
                  },
                  "name": "batch_normalization_11",
                  "inbound_nodes": [[["conv2d_11", 0, 0, {}]]]
                },
                {
                  "class_name": "Conv2D",
                  "config": {
                    "name": "conv2d_8",
                    "trainable": true,
                    "dtype": "float32",
                    "filters": 256,
                    "kernel_size": [1, 3],
                    "strides": [1, 2],
                    "padding": "same",
                    "data_format": "channels_last",
                    "dilation_rate": [1, 1],
                    "groups": 1,
                    "activation": "linear",
                    "use_bias": true,
                    "kernel_initializer": {
                      "class_name": "GlorotUniform",
                      "config": { "seed": null }
                    },
                    "bias_initializer": { "class_name": "Zeros", "config": {} },
                    "kernel_regularizer": null,
                    "bias_regularizer": null,
                    "activity_regularizer": null,
                    "kernel_constraint": null,
                    "bias_constraint": null
                  },
                  "name": "conv2d_8",
                  "inbound_nodes": [[["input_6", 0, 0, {}]]]
                },
                {
                  "class_name": "ReLU",
                  "config": {
                    "name": "re_lu_9",
                    "trainable": true,
                    "dtype": "float32",
                    "max_value": null,
                    "negative_slope": 0.0,
                    "threshold": 0.0
                  },
                  "name": "re_lu_9",
                  "inbound_nodes": [[["batch_normalization_11", 0, 0, {}]]]
                },
                {
                  "class_name": "BatchNormalization",
                  "config": {
                    "name": "batch_normalization_8",
                    "trainable": true,
                    "dtype": "float32",
                    "axis": [3],
                    "momentum": 0.99,
                    "epsilon": 0.001,
                    "center": true,
                    "scale": true,
                    "beta_initializer": { "class_name": "Zeros", "config": {} },
                    "gamma_initializer": { "class_name": "Ones", "config": {} },
                    "moving_mean_initializer": {
                      "class_name": "Zeros",
                      "config": {}
                    },
                    "moving_variance_initializer": {
                      "class_name": "Ones",
                      "config": {}
                    },
                    "beta_regularizer": null,
                    "gamma_regularizer": null,
                    "beta_constraint": null,
                    "gamma_constraint": null
                  },
                  "name": "batch_normalization_8",
                  "inbound_nodes": [[["conv2d_8", 0, 0, {}]]]
                },
                {
                  "class_name": "Dropout",
                  "config": {
                    "name": "dropout_1",
                    "trainable": true,
                    "dtype": "float32",
                    "rate": 0.2,
                    "noise_shape": null,
                    "seed": null
                  },
                  "name": "dropout_1",
                  "inbound_nodes": [[["re_lu_9", 0, 0, {}]]]
                },
                {
                  "class_name": "Add",
                  "config": {
                    "name": "add_1",
                    "trainable": true,
                    "dtype": "float32"
                  },
                  "name": "add_1",
                  "inbound_nodes": [
                    [
                      ["batch_normalization_8", 0, 0, {}],
                      ["dropout_1", 0, 0, {}]
                    ]
                  ]
                }
              ],
              "input_layers": [["input_6", 0, 0]],
              "output_layers": [["add_1", 0, 0]]
            },
            "name": "model_1",
            "inbound_nodes": [[["model", 1, 0, {}]]]
          },
          {
            "class_name": "Functional",
            "config": {
              "name": "model_2",
              "layers": [
                {
                  "class_name": "InputLayer",
                  "config": {
                    "batch_input_shape": [null, 171, 38, 256],
                    "dtype": "float32",
                    "sparse": false,
                    "ragged": false,
                    "name": "input_7"
                  },
                  "name": "input_7",
                  "inbound_nodes": []
                },
                {
                  "class_name": "Conv2D",
                  "config": {
                    "name": "conv2d_13",
                    "trainable": true,
                    "dtype": "float32",
                    "filters": 256,
                    "kernel_size": [1, 3],
                    "strides": [1, 2],
                    "padding": "same",
                    "data_format": "channels_last",
                    "dilation_rate": [1, 1],
                    "groups": 1,
                    "activation": "linear",
                    "use_bias": true,
                    "kernel_initializer": {
                      "class_name": "GlorotUniform",
                      "config": { "seed": null }
                    },
                    "bias_initializer": { "class_name": "Zeros", "config": {} },
                    "kernel_regularizer": {
                      "class_name": "L1L2",
                      "config": { "l2": 0.009999999776482582 }
                    },
                    "bias_regularizer": null,
                    "activity_regularizer": null,
                    "kernel_constraint": null,
                    "bias_constraint": null
                  },
                  "name": "conv2d_13",
                  "inbound_nodes": [[["input_7", 0, 0, {}]]]
                },
                {
                  "class_name": "BatchNormalization",
                  "config": {
                    "name": "batch_normalization_13",
                    "trainable": true,
                    "dtype": "float32",
                    "axis": [3],
                    "momentum": 0.99,
                    "epsilon": 0.001,
                    "center": true,
                    "scale": true,
                    "beta_initializer": { "class_name": "Zeros", "config": {} },
                    "gamma_initializer": { "class_name": "Ones", "config": {} },
                    "moving_mean_initializer": {
                      "class_name": "Zeros",
                      "config": {}
                    },
                    "moving_variance_initializer": {
                      "class_name": "Ones",
                      "config": {}
                    },
                    "beta_regularizer": null,
                    "gamma_regularizer": null,
                    "beta_constraint": null,
                    "gamma_constraint": null
                  },
                  "name": "batch_normalization_13",
                  "inbound_nodes": [[["conv2d_13", 0, 0, {}]]]
                },
                {
                  "class_name": "ReLU",
                  "config": {
                    "name": "re_lu_10",
                    "trainable": true,
                    "dtype": "float32",
                    "max_value": null,
                    "negative_slope": 0.0,
                    "threshold": 0.0
                  },
                  "name": "re_lu_10",
                  "inbound_nodes": [[["batch_normalization_13", 0, 0, {}]]]
                },
                {
                  "class_name": "Conv2D",
                  "config": {
                    "name": "conv2d_14",
                    "trainable": true,
                    "dtype": "float32",
                    "filters": 256,
                    "kernel_size": [1, 3],
                    "strides": [1, 1],
                    "padding": "same",
                    "data_format": "channels_last",
                    "dilation_rate": [1, 1],
                    "groups": 1,
                    "activation": "linear",
                    "use_bias": true,
                    "kernel_initializer": {
                      "class_name": "GlorotUniform",
                      "config": { "seed": null }
                    },
                    "bias_initializer": { "class_name": "Zeros", "config": {} },
                    "kernel_regularizer": null,
                    "bias_regularizer": null,
                    "activity_regularizer": null,
                    "kernel_constraint": null,
                    "bias_constraint": null
                  },
                  "name": "conv2d_14",
                  "inbound_nodes": [[["re_lu_10", 0, 0, {}]]]
                },
                {
                  "class_name": "BatchNormalization",
                  "config": {
                    "name": "batch_normalization_14",
                    "trainable": true,
                    "dtype": "float32",
                    "axis": [3],
                    "momentum": 0.99,
                    "epsilon": 0.001,
                    "center": true,
                    "scale": true,
                    "beta_initializer": { "class_name": "Zeros", "config": {} },
                    "gamma_initializer": { "class_name": "Ones", "config": {} },
                    "moving_mean_initializer": {
                      "class_name": "Zeros",
                      "config": {}
                    },
                    "moving_variance_initializer": {
                      "class_name": "Ones",
                      "config": {}
                    },
                    "beta_regularizer": null,
                    "gamma_regularizer": null,
                    "beta_constraint": null,
                    "gamma_constraint": null
                  },
                  "name": "batch_normalization_14",
                  "inbound_nodes": [[["conv2d_14", 0, 0, {}]]]
                },
                {
                  "class_name": "ReLU",
                  "config": {
                    "name": "re_lu_11",
                    "trainable": true,
                    "dtype": "float32",
                    "max_value": null,
                    "negative_slope": 0.0,
                    "threshold": 0.0
                  },
                  "name": "re_lu_11",
                  "inbound_nodes": [[["batch_normalization_14", 0, 0, {}]]]
                },
                {
                  "class_name": "Conv2D",
                  "config": {
                    "name": "conv2d_15",
                    "trainable": true,
                    "dtype": "float32",
                    "filters": 256,
                    "kernel_size": [1, 3],
                    "strides": [1, 1],
                    "padding": "same",
                    "data_format": "channels_last",
                    "dilation_rate": [1, 1],
                    "groups": 1,
                    "activation": "linear",
                    "use_bias": true,
                    "kernel_initializer": {
                      "class_name": "GlorotUniform",
                      "config": { "seed": null }
                    },
                    "bias_initializer": { "class_name": "Zeros", "config": {} },
                    "kernel_regularizer": null,
                    "bias_regularizer": null,
                    "activity_regularizer": null,
                    "kernel_constraint": null,
                    "bias_constraint": null
                  },
                  "name": "conv2d_15",
                  "inbound_nodes": [[["re_lu_11", 0, 0, {}]]]
                },
                {
                  "class_name": "BatchNormalization",
                  "config": {
                    "name": "batch_normalization_15",
                    "trainable": true,
                    "dtype": "float32",
                    "axis": [3],
                    "momentum": 0.99,
                    "epsilon": 0.001,
                    "center": true,
                    "scale": true,
                    "beta_initializer": { "class_name": "Zeros", "config": {} },
                    "gamma_initializer": { "class_name": "Ones", "config": {} },
                    "moving_mean_initializer": {
                      "class_name": "Zeros",
                      "config": {}
                    },
                    "moving_variance_initializer": {
                      "class_name": "Ones",
                      "config": {}
                    },
                    "beta_regularizer": null,
                    "gamma_regularizer": null,
                    "beta_constraint": null,
                    "gamma_constraint": null
                  },
                  "name": "batch_normalization_15",
                  "inbound_nodes": [[["conv2d_15", 0, 0, {}]]]
                },
                {
                  "class_name": "Conv2D",
                  "config": {
                    "name": "conv2d_12",
                    "trainable": true,
                    "dtype": "float32",
                    "filters": 256,
                    "kernel_size": [1, 3],
                    "strides": [1, 2],
                    "padding": "same",
                    "data_format": "channels_last",
                    "dilation_rate": [1, 1],
                    "groups": 1,
                    "activation": "linear",
                    "use_bias": true,
                    "kernel_initializer": {
                      "class_name": "GlorotUniform",
                      "config": { "seed": null }
                    },
                    "bias_initializer": { "class_name": "Zeros", "config": {} },
                    "kernel_regularizer": null,
                    "bias_regularizer": null,
                    "activity_regularizer": null,
                    "kernel_constraint": null,
                    "bias_constraint": null
                  },
                  "name": "conv2d_12",
                  "inbound_nodes": [[["input_7", 0, 0, {}]]]
                },
                {
                  "class_name": "ReLU",
                  "config": {
                    "name": "re_lu_12",
                    "trainable": true,
                    "dtype": "float32",
                    "max_value": null,
                    "negative_slope": 0.0,
                    "threshold": 0.0
                  },
                  "name": "re_lu_12",
                  "inbound_nodes": [[["batch_normalization_15", 0, 0, {}]]]
                },
                {
                  "class_name": "BatchNormalization",
                  "config": {
                    "name": "batch_normalization_12",
                    "trainable": true,
                    "dtype": "float32",
                    "axis": [3],
                    "momentum": 0.99,
                    "epsilon": 0.001,
                    "center": true,
                    "scale": true,
                    "beta_initializer": { "class_name": "Zeros", "config": {} },
                    "gamma_initializer": { "class_name": "Ones", "config": {} },
                    "moving_mean_initializer": {
                      "class_name": "Zeros",
                      "config": {}
                    },
                    "moving_variance_initializer": {
                      "class_name": "Ones",
                      "config": {}
                    },
                    "beta_regularizer": null,
                    "gamma_regularizer": null,
                    "beta_constraint": null,
                    "gamma_constraint": null
                  },
                  "name": "batch_normalization_12",
                  "inbound_nodes": [[["conv2d_12", 0, 0, {}]]]
                },
                {
                  "class_name": "Dropout",
                  "config": {
                    "name": "dropout_2",
                    "trainable": true,
                    "dtype": "float32",
                    "rate": 0.2,
                    "noise_shape": null,
                    "seed": null
                  },
                  "name": "dropout_2",
                  "inbound_nodes": [[["re_lu_12", 0, 0, {}]]]
                },
                {
                  "class_name": "Add",
                  "config": {
                    "name": "add_2",
                    "trainable": true,
                    "dtype": "float32"
                  },
                  "name": "add_2",
                  "inbound_nodes": [
                    [
                      ["batch_normalization_12", 0, 0, {}],
                      ["dropout_2", 0, 0, {}]
                    ]
                  ]
                }
              ],
              "input_layers": [["input_7", 0, 0]],
              "output_layers": [["add_2", 0, 0]]
            },
            "name": "model_2",
            "inbound_nodes": [[["model_1", 1, 0, {}]]]
          },
          {
            "class_name": "Functional",
            "config": {
              "name": "model_3",
              "layers": [
                {
                  "class_name": "InputLayer",
                  "config": {
                    "batch_input_shape": [null, 171, 19, 256],
                    "dtype": "float32",
                    "sparse": false,
                    "ragged": false,
                    "name": "input_8"
                  },
                  "name": "input_8",
                  "inbound_nodes": []
                },
                {
                  "class_name": "Conv2D",
                  "config": {
                    "name": "conv2d_17",
                    "trainable": true,
                    "dtype": "float32",
                    "filters": 256,
                    "kernel_size": [1, 3],
                    "strides": [1, 2],
                    "padding": "same",
                    "data_format": "channels_last",
                    "dilation_rate": [1, 1],
                    "groups": 1,
                    "activation": "linear",
                    "use_bias": true,
                    "kernel_initializer": {
                      "class_name": "GlorotUniform",
                      "config": { "seed": null }
                    },
                    "bias_initializer": { "class_name": "Zeros", "config": {} },
                    "kernel_regularizer": {
                      "class_name": "L1L2",
                      "config": { "l2": 0.009999999776482582 }
                    },
                    "bias_regularizer": null,
                    "activity_regularizer": null,
                    "kernel_constraint": null,
                    "bias_constraint": null
                  },
                  "name": "conv2d_17",
                  "inbound_nodes": [[["input_8", 0, 0, {}]]]
                },
                {
                  "class_name": "BatchNormalization",
                  "config": {
                    "name": "batch_normalization_17",
                    "trainable": true,
                    "dtype": "float32",
                    "axis": [3],
                    "momentum": 0.99,
                    "epsilon": 0.001,
                    "center": true,
                    "scale": true,
                    "beta_initializer": { "class_name": "Zeros", "config": {} },
                    "gamma_initializer": { "class_name": "Ones", "config": {} },
                    "moving_mean_initializer": {
                      "class_name": "Zeros",
                      "config": {}
                    },
                    "moving_variance_initializer": {
                      "class_name": "Ones",
                      "config": {}
                    },
                    "beta_regularizer": null,
                    "gamma_regularizer": null,
                    "beta_constraint": null,
                    "gamma_constraint": null
                  },
                  "name": "batch_normalization_17",
                  "inbound_nodes": [[["conv2d_17", 0, 0, {}]]]
                },
                {
                  "class_name": "ReLU",
                  "config": {
                    "name": "re_lu_13",
                    "trainable": true,
                    "dtype": "float32",
                    "max_value": null,
                    "negative_slope": 0.0,
                    "threshold": 0.0
                  },
                  "name": "re_lu_13",
                  "inbound_nodes": [[["batch_normalization_17", 0, 0, {}]]]
                },
                {
                  "class_name": "Conv2D",
                  "config": {
                    "name": "conv2d_18",
                    "trainable": true,
                    "dtype": "float32",
                    "filters": 256,
                    "kernel_size": [1, 3],
                    "strides": [1, 1],
                    "padding": "same",
                    "data_format": "channels_last",
                    "dilation_rate": [1, 1],
                    "groups": 1,
                    "activation": "linear",
                    "use_bias": true,
                    "kernel_initializer": {
                      "class_name": "GlorotUniform",
                      "config": { "seed": null }
                    },
                    "bias_initializer": { "class_name": "Zeros", "config": {} },
                    "kernel_regularizer": null,
                    "bias_regularizer": null,
                    "activity_regularizer": null,
                    "kernel_constraint": null,
                    "bias_constraint": null
                  },
                  "name": "conv2d_18",
                  "inbound_nodes": [[["re_lu_13", 0, 0, {}]]]
                },
                {
                  "class_name": "BatchNormalization",
                  "config": {
                    "name": "batch_normalization_18",
                    "trainable": true,
                    "dtype": "float32",
                    "axis": [3],
                    "momentum": 0.99,
                    "epsilon": 0.001,
                    "center": true,
                    "scale": true,
                    "beta_initializer": { "class_name": "Zeros", "config": {} },
                    "gamma_initializer": { "class_name": "Ones", "config": {} },
                    "moving_mean_initializer": {
                      "class_name": "Zeros",
                      "config": {}
                    },
                    "moving_variance_initializer": {
                      "class_name": "Ones",
                      "config": {}
                    },
                    "beta_regularizer": null,
                    "gamma_regularizer": null,
                    "beta_constraint": null,
                    "gamma_constraint": null
                  },
                  "name": "batch_normalization_18",
                  "inbound_nodes": [[["conv2d_18", 0, 0, {}]]]
                },
                {
                  "class_name": "ReLU",
                  "config": {
                    "name": "re_lu_14",
                    "trainable": true,
                    "dtype": "float32",
                    "max_value": null,
                    "negative_slope": 0.0,
                    "threshold": 0.0
                  },
                  "name": "re_lu_14",
                  "inbound_nodes": [[["batch_normalization_18", 0, 0, {}]]]
                },
                {
                  "class_name": "Conv2D",
                  "config": {
                    "name": "conv2d_19",
                    "trainable": true,
                    "dtype": "float32",
                    "filters": 256,
                    "kernel_size": [1, 3],
                    "strides": [1, 1],
                    "padding": "same",
                    "data_format": "channels_last",
                    "dilation_rate": [1, 1],
                    "groups": 1,
                    "activation": "linear",
                    "use_bias": true,
                    "kernel_initializer": {
                      "class_name": "GlorotUniform",
                      "config": { "seed": null }
                    },
                    "bias_initializer": { "class_name": "Zeros", "config": {} },
                    "kernel_regularizer": null,
                    "bias_regularizer": null,
                    "activity_regularizer": null,
                    "kernel_constraint": null,
                    "bias_constraint": null
                  },
                  "name": "conv2d_19",
                  "inbound_nodes": [[["re_lu_14", 0, 0, {}]]]
                },
                {
                  "class_name": "BatchNormalization",
                  "config": {
                    "name": "batch_normalization_19",
                    "trainable": true,
                    "dtype": "float32",
                    "axis": [3],
                    "momentum": 0.99,
                    "epsilon": 0.001,
                    "center": true,
                    "scale": true,
                    "beta_initializer": { "class_name": "Zeros", "config": {} },
                    "gamma_initializer": { "class_name": "Ones", "config": {} },
                    "moving_mean_initializer": {
                      "class_name": "Zeros",
                      "config": {}
                    },
                    "moving_variance_initializer": {
                      "class_name": "Ones",
                      "config": {}
                    },
                    "beta_regularizer": null,
                    "gamma_regularizer": null,
                    "beta_constraint": null,
                    "gamma_constraint": null
                  },
                  "name": "batch_normalization_19",
                  "inbound_nodes": [[["conv2d_19", 0, 0, {}]]]
                },
                {
                  "class_name": "Conv2D",
                  "config": {
                    "name": "conv2d_16",
                    "trainable": true,
                    "dtype": "float32",
                    "filters": 256,
                    "kernel_size": [1, 3],
                    "strides": [1, 2],
                    "padding": "same",
                    "data_format": "channels_last",
                    "dilation_rate": [1, 1],
                    "groups": 1,
                    "activation": "linear",
                    "use_bias": true,
                    "kernel_initializer": {
                      "class_name": "GlorotUniform",
                      "config": { "seed": null }
                    },
                    "bias_initializer": { "class_name": "Zeros", "config": {} },
                    "kernel_regularizer": null,
                    "bias_regularizer": null,
                    "activity_regularizer": null,
                    "kernel_constraint": null,
                    "bias_constraint": null
                  },
                  "name": "conv2d_16",
                  "inbound_nodes": [[["input_8", 0, 0, {}]]]
                },
                {
                  "class_name": "ReLU",
                  "config": {
                    "name": "re_lu_15",
                    "trainable": true,
                    "dtype": "float32",
                    "max_value": null,
                    "negative_slope": 0.0,
                    "threshold": 0.0
                  },
                  "name": "re_lu_15",
                  "inbound_nodes": [[["batch_normalization_19", 0, 0, {}]]]
                },
                {
                  "class_name": "BatchNormalization",
                  "config": {
                    "name": "batch_normalization_16",
                    "trainable": true,
                    "dtype": "float32",
                    "axis": [3],
                    "momentum": 0.99,
                    "epsilon": 0.001,
                    "center": true,
                    "scale": true,
                    "beta_initializer": { "class_name": "Zeros", "config": {} },
                    "gamma_initializer": { "class_name": "Ones", "config": {} },
                    "moving_mean_initializer": {
                      "class_name": "Zeros",
                      "config": {}
                    },
                    "moving_variance_initializer": {
                      "class_name": "Ones",
                      "config": {}
                    },
                    "beta_regularizer": null,
                    "gamma_regularizer": null,
                    "beta_constraint": null,
                    "gamma_constraint": null
                  },
                  "name": "batch_normalization_16",
                  "inbound_nodes": [[["conv2d_16", 0, 0, {}]]]
                },
                {
                  "class_name": "Dropout",
                  "config": {
                    "name": "dropout_3",
                    "trainable": true,
                    "dtype": "float32",
                    "rate": 0.2,
                    "noise_shape": null,
                    "seed": null
                  },
                  "name": "dropout_3",
                  "inbound_nodes": [[["re_lu_15", 0, 0, {}]]]
                },
                {
                  "class_name": "Add",
                  "config": {
                    "name": "add_3",
                    "trainable": true,
                    "dtype": "float32"
                  },
                  "name": "add_3",
                  "inbound_nodes": [
                    [
                      ["batch_normalization_16", 0, 0, {}],
                      ["dropout_3", 0, 0, {}]
                    ]
                  ]
                }
              ],
              "input_layers": [["input_8", 0, 0]],
              "output_layers": [["add_3", 0, 0]]
            },
            "name": "model_3",
            "inbound_nodes": [[["model_2", 1, 0, {}]]]
          },
          {
            "class_name": "Flatten",
            "config": {
              "name": "flatten",
              "trainable": true,
              "dtype": "float32",
              "data_format": "channels_last"
            },
            "name": "flatten",
            "inbound_nodes": [[["model_3", 1, 0, {}]]]
          },
          {
            "class_name": "Dropout",
            "config": {
              "name": "dropout_4",
              "trainable": true,
              "dtype": "float32",
              "rate": 0.2,
              "noise_shape": null,
              "seed": null
            },
            "name": "dropout_4",
            "inbound_nodes": [[["flatten", 0, 0, {}]]]
          },
          {
            "class_name": "Dense",
            "config": {
              "name": "dense",
              "trainable": true,
              "dtype": "float32",
              "units": 7,
              "activation": "linear",
              "use_bias": true,
              "kernel_initializer": {
                "class_name": "GlorotUniform",
                "config": { "seed": null }
              },
              "bias_initializer": { "class_name": "Zeros", "config": {} },
              "kernel_regularizer": null,
              "bias_regularizer": null,
              "activity_regularizer": null,
              "kernel_constraint": null,
              "bias_constraint": null
            },
            "name": "dense",
            "inbound_nodes": [[["dropout_4", 0, 0, {}]]]
          },
          {
            "class_name": "Softmax",
            "config": {
              "name": "softmax",
              "trainable": true,
              "dtype": "float32",
              "axis": -1
            },
            "name": "softmax",
            "inbound_nodes": [[["dense", 0, 0, {}]]]
          },
          {
            "class_name": "Reshape",
            "config": {
              "name": "reshape",
              "trainable": true,
              "dtype": "float32",
              "batch_input_shape": [null, 7],
              "target_shape": [1, 1, 7]
            },
            "name": "reshape",
            "inbound_nodes": [[["softmax", 0, 0, {}]]]
          }
        ],
        "input_layers": [["input_4", 0, 0]],
        "output_layers": [["reshape", 0, 0]]
      }
    },
    "training_config": {
      "loss": "categorical_crossentropy",
      "metrics": [
        [
          {
            "class_name": "MeanMetricWrapper",
            "config": {
              "name": "accuracy",
              "dtype": "float32",
              "fn": "categorical_accuracy"
            }
          }
        ]
      ],
      "weighted_metrics": null,
      "loss_weights": null,
      "optimizer_config": {
        "class_name": "Custom>Adadelta",
        "config": {
          "name": "Adadelta",
          "weight_decay": null,
          "clipnorm": null,
          "global_clipnorm": null,
          "clipvalue": null,
          "use_ema": false,
          "ema_momentum": 0.99,
          "ema_overwrite_frequency": null,
          "jit_compile": true,
          "is_legacy_optimizer": false,
          "learning_rate": {
            "class_name": "ExponentialDecay",
            "config": {
              "initial_learning_rate": 0.01,
              "decay_steps": 100000,
              "decay_rate": 0.96,
              "staircase": true,
              "name": null
            }
          },
          "rho": 0.95,
          "epsilon": 1e-7
        }
      }
    }
  },
  "weightsManifest": [
    {
      "paths": ["group1-shard1of1.bin"],
      "weights": [
        {
          "name": "batch_normalization_3/gamma",
          "shape": [256],
          "dtype": "float32"
        },
        {
          "name": "batch_normalization_3/beta",
          "shape": [256],
          "dtype": "float32"
        },
        {
          "name": "batch_normalization_3/moving_mean",
          "shape": [256],
          "dtype": "float32"
        },
        {
          "name": "batch_normalization_3/moving_variance",
          "shape": [256],
          "dtype": "float32"
        },
        {
          "name": "conv2d_3/kernel",
          "shape": [1, 3, 1, 256],
          "dtype": "float32"
        },
        { "name": "conv2d_3/bias", "shape": [256], "dtype": "float32" },
        { "name": "dense/kernel", "shape": [437760, 7], "dtype": "float32" },
        { "name": "dense/bias", "shape": [7], "dtype": "float32" },
        {
          "name": "conv2d_5/kernel",
          "shape": [1, 3, 256, 256],
          "dtype": "float32"
        },
        { "name": "conv2d_5/bias", "shape": [256], "dtype": "float32" },
        {
          "name": "batch_normalization_5/gamma",
          "shape": [256],
          "dtype": "float32"
        },
        {
          "name": "batch_normalization_5/beta",
          "shape": [256],
          "dtype": "float32"
        },
        {
          "name": "conv2d_6/kernel",
          "shape": [1, 3, 256, 256],
          "dtype": "float32"
        },
        { "name": "conv2d_6/bias", "shape": [256], "dtype": "float32" },
        {
          "name": "batch_normalization_6/gamma",
          "shape": [256],
          "dtype": "float32"
        },
        {
          "name": "batch_normalization_6/beta",
          "shape": [256],
          "dtype": "float32"
        },
        {
          "name": "conv2d_7/kernel",
          "shape": [1, 3, 256, 256],
          "dtype": "float32"
        },
        { "name": "conv2d_7/bias", "shape": [256], "dtype": "float32" },
        {
          "name": "batch_normalization_7/gamma",
          "shape": [256],
          "dtype": "float32"
        },
        {
          "name": "batch_normalization_7/beta",
          "shape": [256],
          "dtype": "float32"
        },
        {
          "name": "conv2d_4/kernel",
          "shape": [1, 3, 256, 256],
          "dtype": "float32"
        },
        { "name": "conv2d_4/bias", "shape": [256], "dtype": "float32" },
        {
          "name": "batch_normalization_4/gamma",
          "shape": [256],
          "dtype": "float32"
        },
        {
          "name": "batch_normalization_4/beta",
          "shape": [256],
          "dtype": "float32"
        },
        {
          "name": "batch_normalization_5/moving_mean",
          "shape": [256],
          "dtype": "float32"
        },
        {
          "name": "batch_normalization_5/moving_variance",
          "shape": [256],
          "dtype": "float32"
        },
        {
          "name": "batch_normalization_6/moving_mean",
          "shape": [256],
          "dtype": "float32"
        },
        {
          "name": "batch_normalization_6/moving_variance",
          "shape": [256],
          "dtype": "float32"
        },
        {
          "name": "batch_normalization_7/moving_mean",
          "shape": [256],
          "dtype": "float32"
        },
        {
          "name": "batch_normalization_7/moving_variance",
          "shape": [256],
          "dtype": "float32"
        },
        {
          "name": "batch_normalization_4/moving_mean",
          "shape": [256],
          "dtype": "float32"
        },
        {
          "name": "batch_normalization_4/moving_variance",
          "shape": [256],
          "dtype": "float32"
        },
        {
          "name": "conv2d_9/kernel",
          "shape": [1, 3, 256, 256],
          "dtype": "float32"
        },
        { "name": "conv2d_9/bias", "shape": [256], "dtype": "float32" },
        {
          "name": "batch_normalization_9/gamma",
          "shape": [256],
          "dtype": "float32"
        },
        {
          "name": "batch_normalization_9/beta",
          "shape": [256],
          "dtype": "float32"
        },
        {
          "name": "conv2d_10/kernel",
          "shape": [1, 3, 256, 256],
          "dtype": "float32"
        },
        { "name": "conv2d_10/bias", "shape": [256], "dtype": "float32" },
        {
          "name": "batch_normalization_10/gamma",
          "shape": [256],
          "dtype": "float32"
        },
        {
          "name": "batch_normalization_10/beta",
          "shape": [256],
          "dtype": "float32"
        },
        {
          "name": "conv2d_11/kernel",
          "shape": [1, 3, 256, 256],
          "dtype": "float32"
        },
        { "name": "conv2d_11/bias", "shape": [256], "dtype": "float32" },
        {
          "name": "batch_normalization_11/gamma",
          "shape": [256],
          "dtype": "float32"
        },
        {
          "name": "batch_normalization_11/beta",
          "shape": [256],
          "dtype": "float32"
        },
        {
          "name": "conv2d_8/kernel",
          "shape": [1, 3, 256, 256],
          "dtype": "float32"
        },
        { "name": "conv2d_8/bias", "shape": [256], "dtype": "float32" },
        {
          "name": "batch_normalization_8/gamma",
          "shape": [256],
          "dtype": "float32"
        },
        {
          "name": "batch_normalization_8/beta",
          "shape": [256],
          "dtype": "float32"
        },
        {
          "name": "batch_normalization_9/moving_mean",
          "shape": [256],
          "dtype": "float32"
        },
        {
          "name": "batch_normalization_9/moving_variance",
          "shape": [256],
          "dtype": "float32"
        },
        {
          "name": "batch_normalization_10/moving_mean",
          "shape": [256],
          "dtype": "float32"
        },
        {
          "name": "batch_normalization_10/moving_variance",
          "shape": [256],
          "dtype": "float32"
        },
        {
          "name": "batch_normalization_11/moving_mean",
          "shape": [256],
          "dtype": "float32"
        },
        {
          "name": "batch_normalization_11/moving_variance",
          "shape": [256],
          "dtype": "float32"
        },
        {
          "name": "batch_normalization_8/moving_mean",
          "shape": [256],
          "dtype": "float32"
        },
        {
          "name": "batch_normalization_8/moving_variance",
          "shape": [256],
          "dtype": "float32"
        },
        {
          "name": "conv2d_13/kernel",
          "shape": [1, 3, 256, 256],
          "dtype": "float32"
        },
        { "name": "conv2d_13/bias", "shape": [256], "dtype": "float32" },
        {
          "name": "batch_normalization_13/gamma",
          "shape": [256],
          "dtype": "float32"
        },
        {
          "name": "batch_normalization_13/beta",
          "shape": [256],
          "dtype": "float32"
        },
        {
          "name": "conv2d_14/kernel",
          "shape": [1, 3, 256, 256],
          "dtype": "float32"
        },
        { "name": "conv2d_14/bias", "shape": [256], "dtype": "float32" },
        {
          "name": "batch_normalization_14/gamma",
          "shape": [256],
          "dtype": "float32"
        },
        {
          "name": "batch_normalization_14/beta",
          "shape": [256],
          "dtype": "float32"
        },
        {
          "name": "conv2d_15/kernel",
          "shape": [1, 3, 256, 256],
          "dtype": "float32"
        },
        { "name": "conv2d_15/bias", "shape": [256], "dtype": "float32" },
        {
          "name": "batch_normalization_15/gamma",
          "shape": [256],
          "dtype": "float32"
        },
        {
          "name": "batch_normalization_15/beta",
          "shape": [256],
          "dtype": "float32"
        },
        {
          "name": "conv2d_12/kernel",
          "shape": [1, 3, 256, 256],
          "dtype": "float32"
        },
        { "name": "conv2d_12/bias", "shape": [256], "dtype": "float32" },
        {
          "name": "batch_normalization_12/gamma",
          "shape": [256],
          "dtype": "float32"
        },
        {
          "name": "batch_normalization_12/beta",
          "shape": [256],
          "dtype": "float32"
        },
        {
          "name": "batch_normalization_13/moving_mean",
          "shape": [256],
          "dtype": "float32"
        },
        {
          "name": "batch_normalization_13/moving_variance",
          "shape": [256],
          "dtype": "float32"
        },
        {
          "name": "batch_normalization_14/moving_mean",
          "shape": [256],
          "dtype": "float32"
        },
        {
          "name": "batch_normalization_14/moving_variance",
          "shape": [256],
          "dtype": "float32"
        },
        {
          "name": "batch_normalization_15/moving_mean",
          "shape": [256],
          "dtype": "float32"
        },
        {
          "name": "batch_normalization_15/moving_variance",
          "shape": [256],
          "dtype": "float32"
        },
        {
          "name": "batch_normalization_12/moving_mean",
          "shape": [256],
          "dtype": "float32"
        },
        {
          "name": "batch_normalization_12/moving_variance",
          "shape": [256],
          "dtype": "float32"
        },
        {
          "name": "conv2d_17/kernel",
          "shape": [1, 3, 256, 256],
          "dtype": "float32"
        },
        { "name": "conv2d_17/bias", "shape": [256], "dtype": "float32" },
        {
          "name": "batch_normalization_17/gamma",
          "shape": [256],
          "dtype": "float32"
        },
        {
          "name": "batch_normalization_17/beta",
          "shape": [256],
          "dtype": "float32"
        },
        {
          "name": "conv2d_18/kernel",
          "shape": [1, 3, 256, 256],
          "dtype": "float32"
        },
        { "name": "conv2d_18/bias", "shape": [256], "dtype": "float32" },
        {
          "name": "batch_normalization_18/gamma",
          "shape": [256],
          "dtype": "float32"
        },
        {
          "name": "batch_normalization_18/beta",
          "shape": [256],
          "dtype": "float32"
        },
        {
          "name": "conv2d_19/kernel",
          "shape": [1, 3, 256, 256],
          "dtype": "float32"
        },
        { "name": "conv2d_19/bias", "shape": [256], "dtype": "float32" },
        {
          "name": "batch_normalization_19/gamma",
          "shape": [256],
          "dtype": "float32"
        },
        {
          "name": "batch_normalization_19/beta",
          "shape": [256],
          "dtype": "float32"
        },
        {
          "name": "conv2d_16/kernel",
          "shape": [1, 3, 256, 256],
          "dtype": "float32"
        },
        { "name": "conv2d_16/bias", "shape": [256], "dtype": "float32" },
        {
          "name": "batch_normalization_16/gamma",
          "shape": [256],
          "dtype": "float32"
        },
        {
          "name": "batch_normalization_16/beta",
          "shape": [256],
          "dtype": "float32"
        },
        {
          "name": "batch_normalization_17/moving_mean",
          "shape": [256],
          "dtype": "float32"
        },
        {
          "name": "batch_normalization_17/moving_variance",
          "shape": [256],
          "dtype": "float32"
        },
        {
          "name": "batch_normalization_18/moving_mean",
          "shape": [256],
          "dtype": "float32"
        },
        {
          "name": "batch_normalization_18/moving_variance",
          "shape": [256],
          "dtype": "float32"
        },
        {
          "name": "batch_normalization_19/moving_mean",
          "shape": [256],
          "dtype": "float32"
        },
        {
          "name": "batch_normalization_19/moving_variance",
          "shape": [256],
          "dtype": "float32"
        },
        {
          "name": "batch_normalization_16/moving_mean",
          "shape": [256],
          "dtype": "float32"
        },
        {
          "name": "batch_normalization_16/moving_variance",
          "shape": [256],
          "dtype": "float32"
        }
      ]
    }
  ]
}
