{
  "format": "layers-model",
  "generatedBy": "keras v2.11.0",
  "convertedBy": "TensorFlow.js Converter v4.2.0",
  "modelTopology": {
    "keras_version": "2.11.0",
    "backend": "tensorflow",
    "model_config": {
      "class_name": "Functional",
      "config": {
        "name": "model_46",
        "layers": [
          {
            "class_name": "InputLayer",
            "config": {
              "batch_input_shape": [null, 171, 300, 1],
              "dtype": "float32",
              "sparse": false,
              "ragged": false,
              "name": "input_27"
            },
            "name": "input_27",
            "inbound_nodes": []
          },
          {
            "class_name": "Conv2D",
            "config": {
              "name": "conv2d_86",
              "trainable": true,
              "dtype": "float32",
              "filters": 256,
              "kernel_size": [1, 3],
              "strides": [1, 2],
              "padding": "same",
              "data_format": "channels_last",
              "dilation_rate": [1, 1],
              "groups": 1,
              "activation": "linear",
              "use_bias": true,
              "kernel_initializer": {
                "class_name": "GlorotUniform",
                "config": { "seed": null }
              },
              "bias_initializer": { "class_name": "Zeros", "config": {} },
              "kernel_regularizer": {
                "class_name": "L1L2",
                "config": { "l2": 0.009999999776482582 }
              },
              "bias_regularizer": null,
              "activity_regularizer": null,
              "kernel_constraint": null,
              "bias_constraint": null
            },
            "name": "conv2d_86",
            "inbound_nodes": [[["input_27", 0, 0, {}]]]
          },
          {
            "class_name": "BatchNormalization",
            "config": {
              "name": "batch_normalization_85",
              "trainable": true,
              "dtype": "float32",
              "axis": [3],
              "momentum": 0.99,
              "epsilon": 0.001,
              "center": true,
              "scale": true,
              "beta_initializer": { "class_name": "Zeros", "config": {} },
              "gamma_initializer": { "class_name": "Ones", "config": {} },
              "moving_mean_initializer": {
                "class_name": "Zeros",
                "config": {}
              },
              "moving_variance_initializer": {
                "class_name": "Ones",
                "config": {}
              },
              "beta_regularizer": null,
              "gamma_regularizer": null,
              "beta_constraint": null,
              "gamma_constraint": null
            },
            "name": "batch_normalization_85",
            "inbound_nodes": [[["conv2d_86", 0, 0, {}]]]
          },
          {
            "class_name": "ReLU",
            "config": {
              "name": "re_lu_65",
              "trainable": true,
              "dtype": "float32",
              "max_value": null,
              "negative_slope": 0.0,
              "threshold": 0.0
            },
            "name": "re_lu_65",
            "inbound_nodes": [[["batch_normalization_85", 0, 0, {}]]]
          },
          {
            "class_name": "Functional",
            "config": {
              "name": "model_42",
              "layers": [
                {
                  "class_name": "InputLayer",
                  "config": {
                    "batch_input_shape": [null, 171, 150, 256],
                    "dtype": "float32",
                    "sparse": false,
                    "ragged": false,
                    "name": "input_28"
                  },
                  "name": "input_28",
                  "inbound_nodes": []
                },
                {
                  "class_name": "Conv2D",
                  "config": {
                    "name": "conv2d_88",
                    "trainable": true,
                    "dtype": "float32",
                    "filters": 256,
                    "kernel_size": [1, 3],
                    "strides": [1, 2],
                    "padding": "same",
                    "data_format": "channels_last",
                    "dilation_rate": [1, 1],
                    "groups": 1,
                    "activation": "linear",
                    "use_bias": true,
                    "kernel_initializer": {
                      "class_name": "GlorotUniform",
                      "config": { "seed": null }
                    },
                    "bias_initializer": { "class_name": "Zeros", "config": {} },
                    "kernel_regularizer": {
                      "class_name": "L1L2",
                      "config": { "l2": 0.009999999776482582 }
                    },
                    "bias_regularizer": null,
                    "activity_regularizer": null,
                    "kernel_constraint": null,
                    "bias_constraint": null
                  },
                  "name": "conv2d_88",
                  "inbound_nodes": [[["input_28", 0, 0, {}]]]
                },
                {
                  "class_name": "BatchNormalization",
                  "config": {
                    "name": "batch_normalization_87",
                    "trainable": true,
                    "dtype": "float32",
                    "axis": [3],
                    "momentum": 0.99,
                    "epsilon": 0.001,
                    "center": true,
                    "scale": true,
                    "beta_initializer": { "class_name": "Zeros", "config": {} },
                    "gamma_initializer": { "class_name": "Ones", "config": {} },
                    "moving_mean_initializer": {
                      "class_name": "Zeros",
                      "config": {}
                    },
                    "moving_variance_initializer": {
                      "class_name": "Ones",
                      "config": {}
                    },
                    "beta_regularizer": null,
                    "gamma_regularizer": null,
                    "beta_constraint": null,
                    "gamma_constraint": null
                  },
                  "name": "batch_normalization_87",
                  "inbound_nodes": [[["conv2d_88", 0, 0, {}]]]
                },
                {
                  "class_name": "ReLU",
                  "config": {
                    "name": "re_lu_66",
                    "trainable": true,
                    "dtype": "float32",
                    "max_value": null,
                    "negative_slope": 0.0,
                    "threshold": 0.0
                  },
                  "name": "re_lu_66",
                  "inbound_nodes": [[["batch_normalization_87", 0, 0, {}]]]
                },
                {
                  "class_name": "Conv2D",
                  "config": {
                    "name": "conv2d_89",
                    "trainable": true,
                    "dtype": "float32",
                    "filters": 256,
                    "kernel_size": [1, 3],
                    "strides": [1, 1],
                    "padding": "same",
                    "data_format": "channels_last",
                    "dilation_rate": [1, 1],
                    "groups": 1,
                    "activation": "linear",
                    "use_bias": true,
                    "kernel_initializer": {
                      "class_name": "GlorotUniform",
                      "config": { "seed": null }
                    },
                    "bias_initializer": { "class_name": "Zeros", "config": {} },
                    "kernel_regularizer": null,
                    "bias_regularizer": null,
                    "activity_regularizer": null,
                    "kernel_constraint": null,
                    "bias_constraint": null
                  },
                  "name": "conv2d_89",
                  "inbound_nodes": [[["re_lu_66", 0, 0, {}]]]
                },
                {
                  "class_name": "BatchNormalization",
                  "config": {
                    "name": "batch_normalization_88",
                    "trainable": true,
                    "dtype": "float32",
                    "axis": [3],
                    "momentum": 0.99,
                    "epsilon": 0.001,
                    "center": true,
                    "scale": true,
                    "beta_initializer": { "class_name": "Zeros", "config": {} },
                    "gamma_initializer": { "class_name": "Ones", "config": {} },
                    "moving_mean_initializer": {
                      "class_name": "Zeros",
                      "config": {}
                    },
                    "moving_variance_initializer": {
                      "class_name": "Ones",
                      "config": {}
                    },
                    "beta_regularizer": null,
                    "gamma_regularizer": null,
                    "beta_constraint": null,
                    "gamma_constraint": null
                  },
                  "name": "batch_normalization_88",
                  "inbound_nodes": [[["conv2d_89", 0, 0, {}]]]
                },
                {
                  "class_name": "ReLU",
                  "config": {
                    "name": "re_lu_67",
                    "trainable": true,
                    "dtype": "float32",
                    "max_value": null,
                    "negative_slope": 0.0,
                    "threshold": 0.0
                  },
                  "name": "re_lu_67",
                  "inbound_nodes": [[["batch_normalization_88", 0, 0, {}]]]
                },
                {
                  "class_name": "Conv2D",
                  "config": {
                    "name": "conv2d_90",
                    "trainable": true,
                    "dtype": "float32",
                    "filters": 256,
                    "kernel_size": [1, 3],
                    "strides": [1, 1],
                    "padding": "same",
                    "data_format": "channels_last",
                    "dilation_rate": [1, 1],
                    "groups": 1,
                    "activation": "linear",
                    "use_bias": true,
                    "kernel_initializer": {
                      "class_name": "GlorotUniform",
                      "config": { "seed": null }
                    },
                    "bias_initializer": { "class_name": "Zeros", "config": {} },
                    "kernel_regularizer": null,
                    "bias_regularizer": null,
                    "activity_regularizer": null,
                    "kernel_constraint": null,
                    "bias_constraint": null
                  },
                  "name": "conv2d_90",
                  "inbound_nodes": [[["re_lu_67", 0, 0, {}]]]
                },
                {
                  "class_name": "BatchNormalization",
                  "config": {
                    "name": "batch_normalization_89",
                    "trainable": true,
                    "dtype": "float32",
                    "axis": [3],
                    "momentum": 0.99,
                    "epsilon": 0.001,
                    "center": true,
                    "scale": true,
                    "beta_initializer": { "class_name": "Zeros", "config": {} },
                    "gamma_initializer": { "class_name": "Ones", "config": {} },
                    "moving_mean_initializer": {
                      "class_name": "Zeros",
                      "config": {}
                    },
                    "moving_variance_initializer": {
                      "class_name": "Ones",
                      "config": {}
                    },
                    "beta_regularizer": null,
                    "gamma_regularizer": null,
                    "beta_constraint": null,
                    "gamma_constraint": null
                  },
                  "name": "batch_normalization_89",
                  "inbound_nodes": [[["conv2d_90", 0, 0, {}]]]
                },
                {
                  "class_name": "Conv2D",
                  "config": {
                    "name": "conv2d_87",
                    "trainable": true,
                    "dtype": "float32",
                    "filters": 256,
                    "kernel_size": [1, 3],
                    "strides": [1, 2],
                    "padding": "same",
                    "data_format": "channels_last",
                    "dilation_rate": [1, 1],
                    "groups": 1,
                    "activation": "linear",
                    "use_bias": true,
                    "kernel_initializer": {
                      "class_name": "GlorotUniform",
                      "config": { "seed": null }
                    },
                    "bias_initializer": { "class_name": "Zeros", "config": {} },
                    "kernel_regularizer": null,
                    "bias_regularizer": null,
                    "activity_regularizer": null,
                    "kernel_constraint": null,
                    "bias_constraint": null
                  },
                  "name": "conv2d_87",
                  "inbound_nodes": [[["input_28", 0, 0, {}]]]
                },
                {
                  "class_name": "ReLU",
                  "config": {
                    "name": "re_lu_68",
                    "trainable": true,
                    "dtype": "float32",
                    "max_value": null,
                    "negative_slope": 0.0,
                    "threshold": 0.0
                  },
                  "name": "re_lu_68",
                  "inbound_nodes": [[["batch_normalization_89", 0, 0, {}]]]
                },
                {
                  "class_name": "BatchNormalization",
                  "config": {
                    "name": "batch_normalization_86",
                    "trainable": true,
                    "dtype": "float32",
                    "axis": [3],
                    "momentum": 0.99,
                    "epsilon": 0.001,
                    "center": true,
                    "scale": true,
                    "beta_initializer": { "class_name": "Zeros", "config": {} },
                    "gamma_initializer": { "class_name": "Ones", "config": {} },
                    "moving_mean_initializer": {
                      "class_name": "Zeros",
                      "config": {}
                    },
                    "moving_variance_initializer": {
                      "class_name": "Ones",
                      "config": {}
                    },
                    "beta_regularizer": null,
                    "gamma_regularizer": null,
                    "beta_constraint": null,
                    "gamma_constraint": null
                  },
                  "name": "batch_normalization_86",
                  "inbound_nodes": [[["conv2d_87", 0, 0, {}]]]
                },
                {
                  "class_name": "Dropout",
                  "config": {
                    "name": "dropout_25",
                    "trainable": true,
                    "dtype": "float32",
                    "rate": 0.2,
                    "noise_shape": null,
                    "seed": null
                  },
                  "name": "dropout_25",
                  "inbound_nodes": [[["re_lu_68", 0, 0, {}]]]
                },
                {
                  "class_name": "Add",
                  "config": {
                    "name": "add_20",
                    "trainable": true,
                    "dtype": "float32"
                  },
                  "name": "add_20",
                  "inbound_nodes": [
                    [
                      ["batch_normalization_86", 0, 0, {}],
                      ["dropout_25", 0, 0, {}]
                    ]
                  ]
                }
              ],
              "input_layers": [["input_28", 0, 0]],
              "output_layers": [["add_20", 0, 0]]
            },
            "name": "model_42",
            "inbound_nodes": [[["re_lu_65", 0, 0, {}]]]
          },
          {
            "class_name": "Functional",
            "config": {
              "name": "model_43",
              "layers": [
                {
                  "class_name": "InputLayer",
                  "config": {
                    "batch_input_shape": [null, 171, 75, 256],
                    "dtype": "float32",
                    "sparse": false,
                    "ragged": false,
                    "name": "input_29"
                  },
                  "name": "input_29",
                  "inbound_nodes": []
                },
                {
                  "class_name": "Conv2D",
                  "config": {
                    "name": "conv2d_92",
                    "trainable": true,
                    "dtype": "float32",
                    "filters": 256,
                    "kernel_size": [1, 3],
                    "strides": [1, 2],
                    "padding": "same",
                    "data_format": "channels_last",
                    "dilation_rate": [1, 1],
                    "groups": 1,
                    "activation": "linear",
                    "use_bias": true,
                    "kernel_initializer": {
                      "class_name": "GlorotUniform",
                      "config": { "seed": null }
                    },
                    "bias_initializer": { "class_name": "Zeros", "config": {} },
                    "kernel_regularizer": {
                      "class_name": "L1L2",
                      "config": { "l2": 0.009999999776482582 }
                    },
                    "bias_regularizer": null,
                    "activity_regularizer": null,
                    "kernel_constraint": null,
                    "bias_constraint": null
                  },
                  "name": "conv2d_92",
                  "inbound_nodes": [[["input_29", 0, 0, {}]]]
                },
                {
                  "class_name": "BatchNormalization",
                  "config": {
                    "name": "batch_normalization_91",
                    "trainable": true,
                    "dtype": "float32",
                    "axis": [3],
                    "momentum": 0.99,
                    "epsilon": 0.001,
                    "center": true,
                    "scale": true,
                    "beta_initializer": { "class_name": "Zeros", "config": {} },
                    "gamma_initializer": { "class_name": "Ones", "config": {} },
                    "moving_mean_initializer": {
                      "class_name": "Zeros",
                      "config": {}
                    },
                    "moving_variance_initializer": {
                      "class_name": "Ones",
                      "config": {}
                    },
                    "beta_regularizer": null,
                    "gamma_regularizer": null,
                    "beta_constraint": null,
                    "gamma_constraint": null
                  },
                  "name": "batch_normalization_91",
                  "inbound_nodes": [[["conv2d_92", 0, 0, {}]]]
                },
                {
                  "class_name": "ReLU",
                  "config": {
                    "name": "re_lu_69",
                    "trainable": true,
                    "dtype": "float32",
                    "max_value": null,
                    "negative_slope": 0.0,
                    "threshold": 0.0
                  },
                  "name": "re_lu_69",
                  "inbound_nodes": [[["batch_normalization_91", 0, 0, {}]]]
                },
                {
                  "class_name": "Conv2D",
                  "config": {
                    "name": "conv2d_93",
                    "trainable": true,
                    "dtype": "float32",
                    "filters": 256,
                    "kernel_size": [1, 3],
                    "strides": [1, 1],
                    "padding": "same",
                    "data_format": "channels_last",
                    "dilation_rate": [1, 1],
                    "groups": 1,
                    "activation": "linear",
                    "use_bias": true,
                    "kernel_initializer": {
                      "class_name": "GlorotUniform",
                      "config": { "seed": null }
                    },
                    "bias_initializer": { "class_name": "Zeros", "config": {} },
                    "kernel_regularizer": null,
                    "bias_regularizer": null,
                    "activity_regularizer": null,
                    "kernel_constraint": null,
                    "bias_constraint": null
                  },
                  "name": "conv2d_93",
                  "inbound_nodes": [[["re_lu_69", 0, 0, {}]]]
                },
                {
                  "class_name": "BatchNormalization",
                  "config": {
                    "name": "batch_normalization_92",
                    "trainable": true,
                    "dtype": "float32",
                    "axis": [3],
                    "momentum": 0.99,
                    "epsilon": 0.001,
                    "center": true,
                    "scale": true,
                    "beta_initializer": { "class_name": "Zeros", "config": {} },
                    "gamma_initializer": { "class_name": "Ones", "config": {} },
                    "moving_mean_initializer": {
                      "class_name": "Zeros",
                      "config": {}
                    },
                    "moving_variance_initializer": {
                      "class_name": "Ones",
                      "config": {}
                    },
                    "beta_regularizer": null,
                    "gamma_regularizer": null,
                    "beta_constraint": null,
                    "gamma_constraint": null
                  },
                  "name": "batch_normalization_92",
                  "inbound_nodes": [[["conv2d_93", 0, 0, {}]]]
                },
                {
                  "class_name": "ReLU",
                  "config": {
                    "name": "re_lu_70",
                    "trainable": true,
                    "dtype": "float32",
                    "max_value": null,
                    "negative_slope": 0.0,
                    "threshold": 0.0
                  },
                  "name": "re_lu_70",
                  "inbound_nodes": [[["batch_normalization_92", 0, 0, {}]]]
                },
                {
                  "class_name": "Conv2D",
                  "config": {
                    "name": "conv2d_94",
                    "trainable": true,
                    "dtype": "float32",
                    "filters": 256,
                    "kernel_size": [1, 3],
                    "strides": [1, 1],
                    "padding": "same",
                    "data_format": "channels_last",
                    "dilation_rate": [1, 1],
                    "groups": 1,
                    "activation": "linear",
                    "use_bias": true,
                    "kernel_initializer": {
                      "class_name": "GlorotUniform",
                      "config": { "seed": null }
                    },
                    "bias_initializer": { "class_name": "Zeros", "config": {} },
                    "kernel_regularizer": null,
                    "bias_regularizer": null,
                    "activity_regularizer": null,
                    "kernel_constraint": null,
                    "bias_constraint": null
                  },
                  "name": "conv2d_94",
                  "inbound_nodes": [[["re_lu_70", 0, 0, {}]]]
                },
                {
                  "class_name": "BatchNormalization",
                  "config": {
                    "name": "batch_normalization_93",
                    "trainable": true,
                    "dtype": "float32",
                    "axis": [3],
                    "momentum": 0.99,
                    "epsilon": 0.001,
                    "center": true,
                    "scale": true,
                    "beta_initializer": { "class_name": "Zeros", "config": {} },
                    "gamma_initializer": { "class_name": "Ones", "config": {} },
                    "moving_mean_initializer": {
                      "class_name": "Zeros",
                      "config": {}
                    },
                    "moving_variance_initializer": {
                      "class_name": "Ones",
                      "config": {}
                    },
                    "beta_regularizer": null,
                    "gamma_regularizer": null,
                    "beta_constraint": null,
                    "gamma_constraint": null
                  },
                  "name": "batch_normalization_93",
                  "inbound_nodes": [[["conv2d_94", 0, 0, {}]]]
                },
                {
                  "class_name": "Conv2D",
                  "config": {
                    "name": "conv2d_91",
                    "trainable": true,
                    "dtype": "float32",
                    "filters": 256,
                    "kernel_size": [1, 3],
                    "strides": [1, 2],
                    "padding": "same",
                    "data_format": "channels_last",
                    "dilation_rate": [1, 1],
                    "groups": 1,
                    "activation": "linear",
                    "use_bias": true,
                    "kernel_initializer": {
                      "class_name": "GlorotUniform",
                      "config": { "seed": null }
                    },
                    "bias_initializer": { "class_name": "Zeros", "config": {} },
                    "kernel_regularizer": null,
                    "bias_regularizer": null,
                    "activity_regularizer": null,
                    "kernel_constraint": null,
                    "bias_constraint": null
                  },
                  "name": "conv2d_91",
                  "inbound_nodes": [[["input_29", 0, 0, {}]]]
                },
                {
                  "class_name": "ReLU",
                  "config": {
                    "name": "re_lu_71",
                    "trainable": true,
                    "dtype": "float32",
                    "max_value": null,
                    "negative_slope": 0.0,
                    "threshold": 0.0
                  },
                  "name": "re_lu_71",
                  "inbound_nodes": [[["batch_normalization_93", 0, 0, {}]]]
                },
                {
                  "class_name": "BatchNormalization",
                  "config": {
                    "name": "batch_normalization_90",
                    "trainable": true,
                    "dtype": "float32",
                    "axis": [3],
                    "momentum": 0.99,
                    "epsilon": 0.001,
                    "center": true,
                    "scale": true,
                    "beta_initializer": { "class_name": "Zeros", "config": {} },
                    "gamma_initializer": { "class_name": "Ones", "config": {} },
                    "moving_mean_initializer": {
                      "class_name": "Zeros",
                      "config": {}
                    },
                    "moving_variance_initializer": {
                      "class_name": "Ones",
                      "config": {}
                    },
                    "beta_regularizer": null,
                    "gamma_regularizer": null,
                    "beta_constraint": null,
                    "gamma_constraint": null
                  },
                  "name": "batch_normalization_90",
                  "inbound_nodes": [[["conv2d_91", 0, 0, {}]]]
                },
                {
                  "class_name": "Dropout",
                  "config": {
                    "name": "dropout_26",
                    "trainable": true,
                    "dtype": "float32",
                    "rate": 0.2,
                    "noise_shape": null,
                    "seed": null
                  },
                  "name": "dropout_26",
                  "inbound_nodes": [[["re_lu_71", 0, 0, {}]]]
                },
                {
                  "class_name": "Add",
                  "config": {
                    "name": "add_21",
                    "trainable": true,
                    "dtype": "float32"
                  },
                  "name": "add_21",
                  "inbound_nodes": [
                    [
                      ["batch_normalization_90", 0, 0, {}],
                      ["dropout_26", 0, 0, {}]
                    ]
                  ]
                }
              ],
              "input_layers": [["input_29", 0, 0]],
              "output_layers": [["add_21", 0, 0]]
            },
            "name": "model_43",
            "inbound_nodes": [[["model_42", 1, 0, {}]]]
          },
          {
            "class_name": "Functional",
            "config": {
              "name": "model_44",
              "layers": [
                {
                  "class_name": "InputLayer",
                  "config": {
                    "batch_input_shape": [null, 171, 38, 256],
                    "dtype": "float32",
                    "sparse": false,
                    "ragged": false,
                    "name": "input_30"
                  },
                  "name": "input_30",
                  "inbound_nodes": []
                },
                {
                  "class_name": "Conv2D",
                  "config": {
                    "name": "conv2d_96",
                    "trainable": true,
                    "dtype": "float32",
                    "filters": 256,
                    "kernel_size": [1, 3],
                    "strides": [1, 2],
                    "padding": "same",
                    "data_format": "channels_last",
                    "dilation_rate": [1, 1],
                    "groups": 1,
                    "activation": "linear",
                    "use_bias": true,
                    "kernel_initializer": {
                      "class_name": "GlorotUniform",
                      "config": { "seed": null }
                    },
                    "bias_initializer": { "class_name": "Zeros", "config": {} },
                    "kernel_regularizer": {
                      "class_name": "L1L2",
                      "config": { "l2": 0.009999999776482582 }
                    },
                    "bias_regularizer": null,
                    "activity_regularizer": null,
                    "kernel_constraint": null,
                    "bias_constraint": null
                  },
                  "name": "conv2d_96",
                  "inbound_nodes": [[["input_30", 0, 0, {}]]]
                },
                {
                  "class_name": "BatchNormalization",
                  "config": {
                    "name": "batch_normalization_95",
                    "trainable": true,
                    "dtype": "float32",
                    "axis": [3],
                    "momentum": 0.99,
                    "epsilon": 0.001,
                    "center": true,
                    "scale": true,
                    "beta_initializer": { "class_name": "Zeros", "config": {} },
                    "gamma_initializer": { "class_name": "Ones", "config": {} },
                    "moving_mean_initializer": {
                      "class_name": "Zeros",
                      "config": {}
                    },
                    "moving_variance_initializer": {
                      "class_name": "Ones",
                      "config": {}
                    },
                    "beta_regularizer": null,
                    "gamma_regularizer": null,
                    "beta_constraint": null,
                    "gamma_constraint": null
                  },
                  "name": "batch_normalization_95",
                  "inbound_nodes": [[["conv2d_96", 0, 0, {}]]]
                },
                {
                  "class_name": "ReLU",
                  "config": {
                    "name": "re_lu_72",
                    "trainable": true,
                    "dtype": "float32",
                    "max_value": null,
                    "negative_slope": 0.0,
                    "threshold": 0.0
                  },
                  "name": "re_lu_72",
                  "inbound_nodes": [[["batch_normalization_95", 0, 0, {}]]]
                },
                {
                  "class_name": "Conv2D",
                  "config": {
                    "name": "conv2d_97",
                    "trainable": true,
                    "dtype": "float32",
                    "filters": 256,
                    "kernel_size": [1, 3],
                    "strides": [1, 1],
                    "padding": "same",
                    "data_format": "channels_last",
                    "dilation_rate": [1, 1],
                    "groups": 1,
                    "activation": "linear",
                    "use_bias": true,
                    "kernel_initializer": {
                      "class_name": "GlorotUniform",
                      "config": { "seed": null }
                    },
                    "bias_initializer": { "class_name": "Zeros", "config": {} },
                    "kernel_regularizer": null,
                    "bias_regularizer": null,
                    "activity_regularizer": null,
                    "kernel_constraint": null,
                    "bias_constraint": null
                  },
                  "name": "conv2d_97",
                  "inbound_nodes": [[["re_lu_72", 0, 0, {}]]]
                },
                {
                  "class_name": "BatchNormalization",
                  "config": {
                    "name": "batch_normalization_96",
                    "trainable": true,
                    "dtype": "float32",
                    "axis": [3],
                    "momentum": 0.99,
                    "epsilon": 0.001,
                    "center": true,
                    "scale": true,
                    "beta_initializer": { "class_name": "Zeros", "config": {} },
                    "gamma_initializer": { "class_name": "Ones", "config": {} },
                    "moving_mean_initializer": {
                      "class_name": "Zeros",
                      "config": {}
                    },
                    "moving_variance_initializer": {
                      "class_name": "Ones",
                      "config": {}
                    },
                    "beta_regularizer": null,
                    "gamma_regularizer": null,
                    "beta_constraint": null,
                    "gamma_constraint": null
                  },
                  "name": "batch_normalization_96",
                  "inbound_nodes": [[["conv2d_97", 0, 0, {}]]]
                },
                {
                  "class_name": "ReLU",
                  "config": {
                    "name": "re_lu_73",
                    "trainable": true,
                    "dtype": "float32",
                    "max_value": null,
                    "negative_slope": 0.0,
                    "threshold": 0.0
                  },
                  "name": "re_lu_73",
                  "inbound_nodes": [[["batch_normalization_96", 0, 0, {}]]]
                },
                {
                  "class_name": "Conv2D",
                  "config": {
                    "name": "conv2d_98",
                    "trainable": true,
                    "dtype": "float32",
                    "filters": 256,
                    "kernel_size": [1, 3],
                    "strides": [1, 1],
                    "padding": "same",
                    "data_format": "channels_last",
                    "dilation_rate": [1, 1],
                    "groups": 1,
                    "activation": "linear",
                    "use_bias": true,
                    "kernel_initializer": {
                      "class_name": "GlorotUniform",
                      "config": { "seed": null }
                    },
                    "bias_initializer": { "class_name": "Zeros", "config": {} },
                    "kernel_regularizer": null,
                    "bias_regularizer": null,
                    "activity_regularizer": null,
                    "kernel_constraint": null,
                    "bias_constraint": null
                  },
                  "name": "conv2d_98",
                  "inbound_nodes": [[["re_lu_73", 0, 0, {}]]]
                },
                {
                  "class_name": "BatchNormalization",
                  "config": {
                    "name": "batch_normalization_97",
                    "trainable": true,
                    "dtype": "float32",
                    "axis": [3],
                    "momentum": 0.99,
                    "epsilon": 0.001,
                    "center": true,
                    "scale": true,
                    "beta_initializer": { "class_name": "Zeros", "config": {} },
                    "gamma_initializer": { "class_name": "Ones", "config": {} },
                    "moving_mean_initializer": {
                      "class_name": "Zeros",
                      "config": {}
                    },
                    "moving_variance_initializer": {
                      "class_name": "Ones",
                      "config": {}
                    },
                    "beta_regularizer": null,
                    "gamma_regularizer": null,
                    "beta_constraint": null,
                    "gamma_constraint": null
                  },
                  "name": "batch_normalization_97",
                  "inbound_nodes": [[["conv2d_98", 0, 0, {}]]]
                },
                {
                  "class_name": "Conv2D",
                  "config": {
                    "name": "conv2d_95",
                    "trainable": true,
                    "dtype": "float32",
                    "filters": 256,
                    "kernel_size": [1, 3],
                    "strides": [1, 2],
                    "padding": "same",
                    "data_format": "channels_last",
                    "dilation_rate": [1, 1],
                    "groups": 1,
                    "activation": "linear",
                    "use_bias": true,
                    "kernel_initializer": {
                      "class_name": "GlorotUniform",
                      "config": { "seed": null }
                    },
                    "bias_initializer": { "class_name": "Zeros", "config": {} },
                    "kernel_regularizer": null,
                    "bias_regularizer": null,
                    "activity_regularizer": null,
                    "kernel_constraint": null,
                    "bias_constraint": null
                  },
                  "name": "conv2d_95",
                  "inbound_nodes": [[["input_30", 0, 0, {}]]]
                },
                {
                  "class_name": "ReLU",
                  "config": {
                    "name": "re_lu_74",
                    "trainable": true,
                    "dtype": "float32",
                    "max_value": null,
                    "negative_slope": 0.0,
                    "threshold": 0.0
                  },
                  "name": "re_lu_74",
                  "inbound_nodes": [[["batch_normalization_97", 0, 0, {}]]]
                },
                {
                  "class_name": "BatchNormalization",
                  "config": {
                    "name": "batch_normalization_94",
                    "trainable": true,
                    "dtype": "float32",
                    "axis": [3],
                    "momentum": 0.99,
                    "epsilon": 0.001,
                    "center": true,
                    "scale": true,
                    "beta_initializer": { "class_name": "Zeros", "config": {} },
                    "gamma_initializer": { "class_name": "Ones", "config": {} },
                    "moving_mean_initializer": {
                      "class_name": "Zeros",
                      "config": {}
                    },
                    "moving_variance_initializer": {
                      "class_name": "Ones",
                      "config": {}
                    },
                    "beta_regularizer": null,
                    "gamma_regularizer": null,
                    "beta_constraint": null,
                    "gamma_constraint": null
                  },
                  "name": "batch_normalization_94",
                  "inbound_nodes": [[["conv2d_95", 0, 0, {}]]]
                },
                {
                  "class_name": "Dropout",
                  "config": {
                    "name": "dropout_27",
                    "trainable": true,
                    "dtype": "float32",
                    "rate": 0.2,
                    "noise_shape": null,
                    "seed": null
                  },
                  "name": "dropout_27",
                  "inbound_nodes": [[["re_lu_74", 0, 0, {}]]]
                },
                {
                  "class_name": "Add",
                  "config": {
                    "name": "add_22",
                    "trainable": true,
                    "dtype": "float32"
                  },
                  "name": "add_22",
                  "inbound_nodes": [
                    [
                      ["batch_normalization_94", 0, 0, {}],
                      ["dropout_27", 0, 0, {}]
                    ]
                  ]
                }
              ],
              "input_layers": [["input_30", 0, 0]],
              "output_layers": [["add_22", 0, 0]]
            },
            "name": "model_44",
            "inbound_nodes": [[["model_43", 1, 0, {}]]]
          },
          {
            "class_name": "Functional",
            "config": {
              "name": "model_45",
              "layers": [
                {
                  "class_name": "InputLayer",
                  "config": {
                    "batch_input_shape": [null, 171, 19, 256],
                    "dtype": "float32",
                    "sparse": false,
                    "ragged": false,
                    "name": "input_31"
                  },
                  "name": "input_31",
                  "inbound_nodes": []
                },
                {
                  "class_name": "Conv2D",
                  "config": {
                    "name": "conv2d_100",
                    "trainable": true,
                    "dtype": "float32",
                    "filters": 256,
                    "kernel_size": [1, 3],
                    "strides": [1, 2],
                    "padding": "same",
                    "data_format": "channels_last",
                    "dilation_rate": [1, 1],
                    "groups": 1,
                    "activation": "linear",
                    "use_bias": true,
                    "kernel_initializer": {
                      "class_name": "GlorotUniform",
                      "config": { "seed": null }
                    },
                    "bias_initializer": { "class_name": "Zeros", "config": {} },
                    "kernel_regularizer": {
                      "class_name": "L1L2",
                      "config": { "l2": 0.009999999776482582 }
                    },
                    "bias_regularizer": null,
                    "activity_regularizer": null,
                    "kernel_constraint": null,
                    "bias_constraint": null
                  },
                  "name": "conv2d_100",
                  "inbound_nodes": [[["input_31", 0, 0, {}]]]
                },
                {
                  "class_name": "BatchNormalization",
                  "config": {
                    "name": "batch_normalization_99",
                    "trainable": true,
                    "dtype": "float32",
                    "axis": [3],
                    "momentum": 0.99,
                    "epsilon": 0.001,
                    "center": true,
                    "scale": true,
                    "beta_initializer": { "class_name": "Zeros", "config": {} },
                    "gamma_initializer": { "class_name": "Ones", "config": {} },
                    "moving_mean_initializer": {
                      "class_name": "Zeros",
                      "config": {}
                    },
                    "moving_variance_initializer": {
                      "class_name": "Ones",
                      "config": {}
                    },
                    "beta_regularizer": null,
                    "gamma_regularizer": null,
                    "beta_constraint": null,
                    "gamma_constraint": null
                  },
                  "name": "batch_normalization_99",
                  "inbound_nodes": [[["conv2d_100", 0, 0, {}]]]
                },
                {
                  "class_name": "ReLU",
                  "config": {
                    "name": "re_lu_75",
                    "trainable": true,
                    "dtype": "float32",
                    "max_value": null,
                    "negative_slope": 0.0,
                    "threshold": 0.0
                  },
                  "name": "re_lu_75",
                  "inbound_nodes": [[["batch_normalization_99", 0, 0, {}]]]
                },
                {
                  "class_name": "Conv2D",
                  "config": {
                    "name": "conv2d_101",
                    "trainable": true,
                    "dtype": "float32",
                    "filters": 256,
                    "kernel_size": [1, 3],
                    "strides": [1, 1],
                    "padding": "same",
                    "data_format": "channels_last",
                    "dilation_rate": [1, 1],
                    "groups": 1,
                    "activation": "linear",
                    "use_bias": true,
                    "kernel_initializer": {
                      "class_name": "GlorotUniform",
                      "config": { "seed": null }
                    },
                    "bias_initializer": { "class_name": "Zeros", "config": {} },
                    "kernel_regularizer": null,
                    "bias_regularizer": null,
                    "activity_regularizer": null,
                    "kernel_constraint": null,
                    "bias_constraint": null
                  },
                  "name": "conv2d_101",
                  "inbound_nodes": [[["re_lu_75", 0, 0, {}]]]
                },
                {
                  "class_name": "BatchNormalization",
                  "config": {
                    "name": "batch_normalization_100",
                    "trainable": true,
                    "dtype": "float32",
                    "axis": [3],
                    "momentum": 0.99,
                    "epsilon": 0.001,
                    "center": true,
                    "scale": true,
                    "beta_initializer": { "class_name": "Zeros", "config": {} },
                    "gamma_initializer": { "class_name": "Ones", "config": {} },
                    "moving_mean_initializer": {
                      "class_name": "Zeros",
                      "config": {}
                    },
                    "moving_variance_initializer": {
                      "class_name": "Ones",
                      "config": {}
                    },
                    "beta_regularizer": null,
                    "gamma_regularizer": null,
                    "beta_constraint": null,
                    "gamma_constraint": null
                  },
                  "name": "batch_normalization_100",
                  "inbound_nodes": [[["conv2d_101", 0, 0, {}]]]
                },
                {
                  "class_name": "ReLU",
                  "config": {
                    "name": "re_lu_76",
                    "trainable": true,
                    "dtype": "float32",
                    "max_value": null,
                    "negative_slope": 0.0,
                    "threshold": 0.0
                  },
                  "name": "re_lu_76",
                  "inbound_nodes": [[["batch_normalization_100", 0, 0, {}]]]
                },
                {
                  "class_name": "Conv2D",
                  "config": {
                    "name": "conv2d_102",
                    "trainable": true,
                    "dtype": "float32",
                    "filters": 256,
                    "kernel_size": [1, 3],
                    "strides": [1, 1],
                    "padding": "same",
                    "data_format": "channels_last",
                    "dilation_rate": [1, 1],
                    "groups": 1,
                    "activation": "linear",
                    "use_bias": true,
                    "kernel_initializer": {
                      "class_name": "GlorotUniform",
                      "config": { "seed": null }
                    },
                    "bias_initializer": { "class_name": "Zeros", "config": {} },
                    "kernel_regularizer": null,
                    "bias_regularizer": null,
                    "activity_regularizer": null,
                    "kernel_constraint": null,
                    "bias_constraint": null
                  },
                  "name": "conv2d_102",
                  "inbound_nodes": [[["re_lu_76", 0, 0, {}]]]
                },
                {
                  "class_name": "BatchNormalization",
                  "config": {
                    "name": "batch_normalization_101",
                    "trainable": true,
                    "dtype": "float32",
                    "axis": [3],
                    "momentum": 0.99,
                    "epsilon": 0.001,
                    "center": true,
                    "scale": true,
                    "beta_initializer": { "class_name": "Zeros", "config": {} },
                    "gamma_initializer": { "class_name": "Ones", "config": {} },
                    "moving_mean_initializer": {
                      "class_name": "Zeros",
                      "config": {}
                    },
                    "moving_variance_initializer": {
                      "class_name": "Ones",
                      "config": {}
                    },
                    "beta_regularizer": null,
                    "gamma_regularizer": null,
                    "beta_constraint": null,
                    "gamma_constraint": null
                  },
                  "name": "batch_normalization_101",
                  "inbound_nodes": [[["conv2d_102", 0, 0, {}]]]
                },
                {
                  "class_name": "Conv2D",
                  "config": {
                    "name": "conv2d_99",
                    "trainable": true,
                    "dtype": "float32",
                    "filters": 256,
                    "kernel_size": [1, 3],
                    "strides": [1, 2],
                    "padding": "same",
                    "data_format": "channels_last",
                    "dilation_rate": [1, 1],
                    "groups": 1,
                    "activation": "linear",
                    "use_bias": true,
                    "kernel_initializer": {
                      "class_name": "GlorotUniform",
                      "config": { "seed": null }
                    },
                    "bias_initializer": { "class_name": "Zeros", "config": {} },
                    "kernel_regularizer": null,
                    "bias_regularizer": null,
                    "activity_regularizer": null,
                    "kernel_constraint": null,
                    "bias_constraint": null
                  },
                  "name": "conv2d_99",
                  "inbound_nodes": [[["input_31", 0, 0, {}]]]
                },
                {
                  "class_name": "ReLU",
                  "config": {
                    "name": "re_lu_77",
                    "trainable": true,
                    "dtype": "float32",
                    "max_value": null,
                    "negative_slope": 0.0,
                    "threshold": 0.0
                  },
                  "name": "re_lu_77",
                  "inbound_nodes": [[["batch_normalization_101", 0, 0, {}]]]
                },
                {
                  "class_name": "BatchNormalization",
                  "config": {
                    "name": "batch_normalization_98",
                    "trainable": true,
                    "dtype": "float32",
                    "axis": [3],
                    "momentum": 0.99,
                    "epsilon": 0.001,
                    "center": true,
                    "scale": true,
                    "beta_initializer": { "class_name": "Zeros", "config": {} },
                    "gamma_initializer": { "class_name": "Ones", "config": {} },
                    "moving_mean_initializer": {
                      "class_name": "Zeros",
                      "config": {}
                    },
                    "moving_variance_initializer": {
                      "class_name": "Ones",
                      "config": {}
                    },
                    "beta_regularizer": null,
                    "gamma_regularizer": null,
                    "beta_constraint": null,
                    "gamma_constraint": null
                  },
                  "name": "batch_normalization_98",
                  "inbound_nodes": [[["conv2d_99", 0, 0, {}]]]
                },
                {
                  "class_name": "Dropout",
                  "config": {
                    "name": "dropout_28",
                    "trainable": true,
                    "dtype": "float32",
                    "rate": 0.2,
                    "noise_shape": null,
                    "seed": null
                  },
                  "name": "dropout_28",
                  "inbound_nodes": [[["re_lu_77", 0, 0, {}]]]
                },
                {
                  "class_name": "Add",
                  "config": {
                    "name": "add_23",
                    "trainable": true,
                    "dtype": "float32"
                  },
                  "name": "add_23",
                  "inbound_nodes": [
                    [
                      ["batch_normalization_98", 0, 0, {}],
                      ["dropout_28", 0, 0, {}]
                    ]
                  ]
                }
              ],
              "input_layers": [["input_31", 0, 0]],
              "output_layers": [["add_23", 0, 0]]
            },
            "name": "model_45",
            "inbound_nodes": [[["model_44", 1, 0, {}]]]
          },
          {
            "class_name": "Flatten",
            "config": {
              "name": "flatten_4",
              "trainable": true,
              "dtype": "float32",
              "data_format": "channels_last"
            },
            "name": "flatten_4",
            "inbound_nodes": [[["model_45", 1, 0, {}]]]
          },
          {
            "class_name": "Dropout",
            "config": {
              "name": "dropout_29",
              "trainable": true,
              "dtype": "float32",
              "rate": 0.2,
              "noise_shape": null,
              "seed": null
            },
            "name": "dropout_29",
            "inbound_nodes": [[["flatten_4", 0, 0, {}]]]
          },
          {
            "class_name": "Dense",
            "config": {
              "name": "dense_4",
              "trainable": true,
              "dtype": "float32",
              "units": 7,
              "activation": "linear",
              "use_bias": true,
              "kernel_initializer": {
                "class_name": "GlorotUniform",
                "config": { "seed": null }
              },
              "bias_initializer": { "class_name": "Zeros", "config": {} },
              "kernel_regularizer": null,
              "bias_regularizer": null,
              "activity_regularizer": null,
              "kernel_constraint": null,
              "bias_constraint": null
            },
            "name": "dense_4",
            "inbound_nodes": [[["dropout_29", 0, 0, {}]]]
          },
          {
            "class_name": "Softmax",
            "config": {
              "name": "softmax_5",
              "trainable": true,
              "dtype": "float32",
              "axis": -1
            },
            "name": "softmax_5",
            "inbound_nodes": [[["dense_4", 0, 0, {}]]]
          },
          {
            "class_name": "Reshape",
            "config": {
              "name": "reshape_4",
              "trainable": true,
              "dtype": "float32",
              "batch_input_shape": [null, 7],
              "target_shape": [1, 1, 7]
            },
            "name": "reshape_4",
            "inbound_nodes": [[["softmax_5", 0, 0, {}]]]
          }
        ],
        "input_layers": [["input_27", 0, 0]],
        "output_layers": [["reshape_4", 0, 0]]
      }
    },
    "training_config": {
      "loss": "categorical_crossentropy",
      "metrics": [
        [
          {
            "class_name": "MeanMetricWrapper",
            "config": {
              "name": "accuracy",
              "dtype": "float32",
              "fn": "categorical_accuracy"
            }
          }
        ]
      ],
      "weighted_metrics": null,
      "loss_weights": null,
      "optimizer_config": {
        "class_name": "Custom>Adadelta",
        "config": {
          "name": "Adadelta",
          "weight_decay": null,
          "clipnorm": null,
          "global_clipnorm": null,
          "clipvalue": null,
          "use_ema": false,
          "ema_momentum": 0.99,
          "ema_overwrite_frequency": null,
          "jit_compile": true,
          "is_legacy_optimizer": false,
          "learning_rate": {
            "class_name": "ExponentialDecay",
            "config": {
              "initial_learning_rate": 0.01,
              "decay_steps": 100000,
              "decay_rate": 0.96,
              "staircase": true,
              "name": null
            }
          },
          "rho": 0.95,
          "epsilon": 1e-7
        }
      }
    }
  },
  "weightsManifest": [
    {
      "paths": ["group1-shard1of1.bin"],
      "weights": [
        {
          "name": "batch_normalization_85/gamma",
          "shape": [256],
          "dtype": "float32"
        },
        {
          "name": "batch_normalization_85/beta",
          "shape": [256],
          "dtype": "float32"
        },
        {
          "name": "batch_normalization_85/moving_mean",
          "shape": [256],
          "dtype": "float32"
        },
        {
          "name": "batch_normalization_85/moving_variance",
          "shape": [256],
          "dtype": "float32"
        },
        {
          "name": "conv2d_86/kernel",
          "shape": [1, 3, 1, 256],
          "dtype": "float32"
        },
        { "name": "conv2d_86/bias", "shape": [256], "dtype": "float32" },
        { "name": "dense_4/kernel", "shape": [437760, 7], "dtype": "float32" },
        { "name": "dense_4/bias", "shape": [7], "dtype": "float32" },
        {
          "name": "conv2d_88/kernel",
          "shape": [1, 3, 256, 256],
          "dtype": "float32"
        },
        { "name": "conv2d_88/bias", "shape": [256], "dtype": "float32" },
        {
          "name": "batch_normalization_87/gamma",
          "shape": [256],
          "dtype": "float32"
        },
        {
          "name": "batch_normalization_87/beta",
          "shape": [256],
          "dtype": "float32"
        },
        {
          "name": "conv2d_89/kernel",
          "shape": [1, 3, 256, 256],
          "dtype": "float32"
        },
        { "name": "conv2d_89/bias", "shape": [256], "dtype": "float32" },
        {
          "name": "batch_normalization_88/gamma",
          "shape": [256],
          "dtype": "float32"
        },
        {
          "name": "batch_normalization_88/beta",
          "shape": [256],
          "dtype": "float32"
        },
        {
          "name": "conv2d_90/kernel",
          "shape": [1, 3, 256, 256],
          "dtype": "float32"
        },
        { "name": "conv2d_90/bias", "shape": [256], "dtype": "float32" },
        {
          "name": "batch_normalization_89/gamma",
          "shape": [256],
          "dtype": "float32"
        },
        {
          "name": "batch_normalization_89/beta",
          "shape": [256],
          "dtype": "float32"
        },
        {
          "name": "conv2d_87/kernel",
          "shape": [1, 3, 256, 256],
          "dtype": "float32"
        },
        { "name": "conv2d_87/bias", "shape": [256], "dtype": "float32" },
        {
          "name": "batch_normalization_86/gamma",
          "shape": [256],
          "dtype": "float32"
        },
        {
          "name": "batch_normalization_86/beta",
          "shape": [256],
          "dtype": "float32"
        },
        {
          "name": "batch_normalization_87/moving_mean",
          "shape": [256],
          "dtype": "float32"
        },
        {
          "name": "batch_normalization_87/moving_variance",
          "shape": [256],
          "dtype": "float32"
        },
        {
          "name": "batch_normalization_88/moving_mean",
          "shape": [256],
          "dtype": "float32"
        },
        {
          "name": "batch_normalization_88/moving_variance",
          "shape": [256],
          "dtype": "float32"
        },
        {
          "name": "batch_normalization_89/moving_mean",
          "shape": [256],
          "dtype": "float32"
        },
        {
          "name": "batch_normalization_89/moving_variance",
          "shape": [256],
          "dtype": "float32"
        },
        {
          "name": "batch_normalization_86/moving_mean",
          "shape": [256],
          "dtype": "float32"
        },
        {
          "name": "batch_normalization_86/moving_variance",
          "shape": [256],
          "dtype": "float32"
        },
        {
          "name": "conv2d_92/kernel",
          "shape": [1, 3, 256, 256],
          "dtype": "float32"
        },
        { "name": "conv2d_92/bias", "shape": [256], "dtype": "float32" },
        {
          "name": "batch_normalization_91/gamma",
          "shape": [256],
          "dtype": "float32"
        },
        {
          "name": "batch_normalization_91/beta",
          "shape": [256],
          "dtype": "float32"
        },
        {
          "name": "conv2d_93/kernel",
          "shape": [1, 3, 256, 256],
          "dtype": "float32"
        },
        { "name": "conv2d_93/bias", "shape": [256], "dtype": "float32" },
        {
          "name": "batch_normalization_92/gamma",
          "shape": [256],
          "dtype": "float32"
        },
        {
          "name": "batch_normalization_92/beta",
          "shape": [256],
          "dtype": "float32"
        },
        {
          "name": "conv2d_94/kernel",
          "shape": [1, 3, 256, 256],
          "dtype": "float32"
        },
        { "name": "conv2d_94/bias", "shape": [256], "dtype": "float32" },
        {
          "name": "batch_normalization_93/gamma",
          "shape": [256],
          "dtype": "float32"
        },
        {
          "name": "batch_normalization_93/beta",
          "shape": [256],
          "dtype": "float32"
        },
        {
          "name": "conv2d_91/kernel",
          "shape": [1, 3, 256, 256],
          "dtype": "float32"
        },
        { "name": "conv2d_91/bias", "shape": [256], "dtype": "float32" },
        {
          "name": "batch_normalization_90/gamma",
          "shape": [256],
          "dtype": "float32"
        },
        {
          "name": "batch_normalization_90/beta",
          "shape": [256],
          "dtype": "float32"
        },
        {
          "name": "batch_normalization_91/moving_mean",
          "shape": [256],
          "dtype": "float32"
        },
        {
          "name": "batch_normalization_91/moving_variance",
          "shape": [256],
          "dtype": "float32"
        },
        {
          "name": "batch_normalization_92/moving_mean",
          "shape": [256],
          "dtype": "float32"
        },
        {
          "name": "batch_normalization_92/moving_variance",
          "shape": [256],
          "dtype": "float32"
        },
        {
          "name": "batch_normalization_93/moving_mean",
          "shape": [256],
          "dtype": "float32"
        },
        {
          "name": "batch_normalization_93/moving_variance",
          "shape": [256],
          "dtype": "float32"
        },
        {
          "name": "batch_normalization_90/moving_mean",
          "shape": [256],
          "dtype": "float32"
        },
        {
          "name": "batch_normalization_90/moving_variance",
          "shape": [256],
          "dtype": "float32"
        },
        {
          "name": "conv2d_96/kernel",
          "shape": [1, 3, 256, 256],
          "dtype": "float32"
        },
        { "name": "conv2d_96/bias", "shape": [256], "dtype": "float32" },
        {
          "name": "batch_normalization_95/gamma",
          "shape": [256],
          "dtype": "float32"
        },
        {
          "name": "batch_normalization_95/beta",
          "shape": [256],
          "dtype": "float32"
        },
        {
          "name": "conv2d_97/kernel",
          "shape": [1, 3, 256, 256],
          "dtype": "float32"
        },
        { "name": "conv2d_97/bias", "shape": [256], "dtype": "float32" },
        {
          "name": "batch_normalization_96/gamma",
          "shape": [256],
          "dtype": "float32"
        },
        {
          "name": "batch_normalization_96/beta",
          "shape": [256],
          "dtype": "float32"
        },
        {
          "name": "conv2d_98/kernel",
          "shape": [1, 3, 256, 256],
          "dtype": "float32"
        },
        { "name": "conv2d_98/bias", "shape": [256], "dtype": "float32" },
        {
          "name": "batch_normalization_97/gamma",
          "shape": [256],
          "dtype": "float32"
        },
        {
          "name": "batch_normalization_97/beta",
          "shape": [256],
          "dtype": "float32"
        },
        {
          "name": "conv2d_95/kernel",
          "shape": [1, 3, 256, 256],
          "dtype": "float32"
        },
        { "name": "conv2d_95/bias", "shape": [256], "dtype": "float32" },
        {
          "name": "batch_normalization_94/gamma",
          "shape": [256],
          "dtype": "float32"
        },
        {
          "name": "batch_normalization_94/beta",
          "shape": [256],
          "dtype": "float32"
        },
        {
          "name": "batch_normalization_95/moving_mean",
          "shape": [256],
          "dtype": "float32"
        },
        {
          "name": "batch_normalization_95/moving_variance",
          "shape": [256],
          "dtype": "float32"
        },
        {
          "name": "batch_normalization_96/moving_mean",
          "shape": [256],
          "dtype": "float32"
        },
        {
          "name": "batch_normalization_96/moving_variance",
          "shape": [256],
          "dtype": "float32"
        },
        {
          "name": "batch_normalization_97/moving_mean",
          "shape": [256],
          "dtype": "float32"
        },
        {
          "name": "batch_normalization_97/moving_variance",
          "shape": [256],
          "dtype": "float32"
        },
        {
          "name": "batch_normalization_94/moving_mean",
          "shape": [256],
          "dtype": "float32"
        },
        {
          "name": "batch_normalization_94/moving_variance",
          "shape": [256],
          "dtype": "float32"
        },
        {
          "name": "conv2d_100/kernel",
          "shape": [1, 3, 256, 256],
          "dtype": "float32"
        },
        { "name": "conv2d_100/bias", "shape": [256], "dtype": "float32" },
        {
          "name": "batch_normalization_99/gamma",
          "shape": [256],
          "dtype": "float32"
        },
        {
          "name": "batch_normalization_99/beta",
          "shape": [256],
          "dtype": "float32"
        },
        {
          "name": "conv2d_101/kernel",
          "shape": [1, 3, 256, 256],
          "dtype": "float32"
        },
        { "name": "conv2d_101/bias", "shape": [256], "dtype": "float32" },
        {
          "name": "batch_normalization_100/gamma",
          "shape": [256],
          "dtype": "float32"
        },
        {
          "name": "batch_normalization_100/beta",
          "shape": [256],
          "dtype": "float32"
        },
        {
          "name": "conv2d_102/kernel",
          "shape": [1, 3, 256, 256],
          "dtype": "float32"
        },
        { "name": "conv2d_102/bias", "shape": [256], "dtype": "float32" },
        {
          "name": "batch_normalization_101/gamma",
          "shape": [256],
          "dtype": "float32"
        },
        {
          "name": "batch_normalization_101/beta",
          "shape": [256],
          "dtype": "float32"
        },
        {
          "name": "conv2d_99/kernel",
          "shape": [1, 3, 256, 256],
          "dtype": "float32"
        },
        { "name": "conv2d_99/bias", "shape": [256], "dtype": "float32" },
        {
          "name": "batch_normalization_98/gamma",
          "shape": [256],
          "dtype": "float32"
        },
        {
          "name": "batch_normalization_98/beta",
          "shape": [256],
          "dtype": "float32"
        },
        {
          "name": "batch_normalization_99/moving_mean",
          "shape": [256],
          "dtype": "float32"
        },
        {
          "name": "batch_normalization_99/moving_variance",
          "shape": [256],
          "dtype": "float32"
        },
        {
          "name": "batch_normalization_100/moving_mean",
          "shape": [256],
          "dtype": "float32"
        },
        {
          "name": "batch_normalization_100/moving_variance",
          "shape": [256],
          "dtype": "float32"
        },
        {
          "name": "batch_normalization_101/moving_mean",
          "shape": [256],
          "dtype": "float32"
        },
        {
          "name": "batch_normalization_101/moving_variance",
          "shape": [256],
          "dtype": "float32"
        },
        {
          "name": "batch_normalization_98/moving_mean",
          "shape": [256],
          "dtype": "float32"
        },
        {
          "name": "batch_normalization_98/moving_variance",
          "shape": [256],
          "dtype": "float32"
        }
      ]
    }
  ]
}
